…
I1223 00:14:22.268889 25375 solver.cpp:87] Creating training net from net file: /home/may/Documents/caffe-masters/caffe-convlstm-master/examples/convLstm/c20.prototxt
I1223 00:14:22.269474 25375 net.cpp:294] The NetState phase (0) differed from the phase (1) specified by a rule in layer data
I1223 00:14:22.269899 25375 net.cpp:51] Initializing net from parameters: 
name: "May_lstm"
state {
  phase: TRAIN
  level: 0
  stage: ""
}
layer {
  name: "data"
  type: "Python"
  top: "data"
  top: "label"
  top: "clip_markers"
  include {
    phase: TRAIN
  }
  python_param {
    module: "sequence_input_layer"
    layer: "videoReadTrain_RGB"
  }
}
layer {
  name: "conv1_1"
  type: "Convolution"
  bottom: "data"
  top: "conv1_1"
  param {
    name: "conv1_1_w"
    lr_mult: 1
  }
  param {
    name: "conv1_1_b"
    lr_mult: 2
  }
  convolution_param {
    num_output: 64
    pad: 1
    kernel_size: 3
  }
}
layer {
  name: "conv1_1_bn"
  type: "BN"
  bottom: "conv1_1"
  top: "conv1_1"
  param {
    lr_mult: 1
    decay_mult: 0
  }
  param {
    lr_mult: 1
    decay_mult: 0
  }
  param {
    lr_mult: 0
    decay_mult: 0
  }
  param {
    lr_mult: 0
    decay_mult: 0
  }
  bn_param {
    slope_filler {
      type: "constant"
      value: 1
    }
    bias_filler {
      type: "constant"
      value: 0
    }
    momentum: 0.95
    frozen: true
  }
}
layer {
  name: "relu1_1"
  type: "ReLU"
  bottom: "conv1_1"
  top: "conv1_1"
}
layer {
  name: "conv1_2"
  type: "Convolution"
  bottom: "conv1_1"
  top: "conv1_2"
  param {
    name: "conv1_2_w"
    lr_mult: 1
  }
  param {
    name: "conv1_2_b"
    lr_mult: 2
  }
  convolution_param {
    num_output: 64
    pad: 1
    kernel_size: 3
  }
}
layer {
  name: "conv1_2_bn"
  type: "BN"
  bottom: "conv1_2"
  top: "conv1_2"
  param {
    lr_mult: 1
    decay_mult: 0
  }
  param {
    lr_mult: 1
    decay_mult: 0
  }
  param {
    lr_mult: 0
    decay_mult: 0
  }
  param {
    lr_mult: 0
    decay_mult: 0
  }
  bn_param {
    slope_filler {
      type: "constant"
      value: 1
    }
    bias_filler {
      type: "constant"
      value: 0
    }
    momentum: 0.95
    frozen: true
  }
}
layer {
  name: "relu1_2"
  type: "ReLU"
  bottom: "conv1_2"
  top: "conv1_2"
}
layer {
  name: "pool1"
  type: "Pooling"
  bottom: "conv1_2"
  top: "pool1"
  pooling_param {
    pool: MAX
    kernel_size: 2
    stride: 2
  }
}
layer {
  name: "conv2_1"
  type: "Convolution"
  bottom: "pool1"
  top: "conv2_1"
  param {
    name: "conv2_1_w"
    lr_mult: 1
  }
  param {
    name: "conv2_1_b"
    lr_mult: 2
  }
  convolution_param {
    num_output: 128
    pad: 1
    kernel_size: 3
  }
}
layer {
  name: "conv2_1_bn"
  type: "BN"
  bottom: "conv2_1"
  top: "conv2_1"
  param {
    lr_mult: 1
    decay_mult: 0
  }
  param {
    lr_mult: 1
    decay_mult: 0
  }
  param {
    lr_mult: 0
    decay_mult: 0
  }
  param {
    lr_mult: 0
    decay_mult: 0
  }
  bn_param {
    slope_filler {
      type: "constant"
      value: 1
    }
    bias_filler {
      type: "constant"
      value: 0
    }
    momentum: 0.95
    frozen: true
  }
}
layer {
  name: "relu2_1"
  type: "ReLU"
  bottom: "conv2_1"
  top: "conv2_1"
}
layer {
  name: "conv2_2"
  type: "Convolution"
  bottom: "conv2_1"
  top: "conv2_2"
  param {
    name: "conv2_2_w"
    lr_mult: 1
  }
  param {
    name: "conv2_2_b"
    lr_mult: 2
  }
  convolution_param {
    num_output: 128
    pad: 1
    kernel_size: 3
  }
}
layer {
  name: "conv2_2_bn"
  type: "BN"
  bottom: "conv2_2"
  top: "conv2_2"
  param {
    lr_mult: 1
    decay_mult: 0
  }
  param {
    lr_mult: 1
    decay_mult: 0
  }
  param {
    lr_mult: 0
    decay_mult: 0
  }
  param {
    lr_mult: 0
    decay_mult: 0
  }
  bn_param {
    slope_filler {
      type: "constant"
      value: 1
    }
    bias_filler {
      type: "constant"
      value: 0
    }
    momentum: 0.95
    frozen: true
  }
}
layer {
  name: "relu2_2"
  type: "ReLU"
  bottom: "conv2_2"
  top: "conv2_2"
}
layer {
  name: "pool2"
  type: "Pooling"
  bottom: "conv2_2"
  top: "pool2"
  pooling_param {
    pool: MAX
    kernel_size: 2
    stride: 2
  }
}
layer {
  name: "conv3_1"
  type: "Convolution"
  bottom: "pool2"
  top: "conv3_1"
  param {
    name: "conv3_1_w"
    lr_mult: 1
  }
  param {
    name: "conv3_1_b"
    lr_mult: 2
  }
  convolution_param {
    num_output: 256
    pad: 1
    kernel_size: 3
  }
}
layer {
  name: "conv3_1_bn"
  type: "BN"
  bottom: "conv3_1"
  top: "conv3_1"
  param {
    lr_mult: 1
    decay_mult: 0
  }
  param {
    lr_mult: 1
    decay_mult: 0
  }
  param {
    lr_mult: 0
    decay_mult: 0
  }
  param {
    lr_mult: 0
    decay_mult: 0
  }
  bn_param {
    slope_filler {
      type: "constant"
      value: 1
    }
    bias_filler {
      type: "constant"
      value: 0
    }
    momentum: 0.95
    frozen: true
  }
}
layer {
  name: "relu3_1"
  type: "ReLU"
  bottom: "conv3_1"
  top: "conv3_1"
}
layer {
  name: "conv3_2"
  type: "Convolution"
  bottom: "conv3_1"
  top: "conv3_2"
  param {
    name: "conv3_2_w"
    lr_mult: 1
  }
  param {
    name: "conv3_2_b"
    lr_mult: 2
  }
  convolution_param {
    num_output: 256
    pad: 1
    kernel_size: 3
  }
}
layer {
  name: "conv3_2_bn"
  type: "BN"
  bottom: "conv3_2"
  top: "conv3_2"
  param {
    lr_mult: 1
    decay_mult: 0
  }
  param {
    lr_mult: 1
    decay_mult: 0
  }
  param {
    lr_mult: 0
    decay_mult: 0
  }
  param {
    lr_mult: 0
    decay_mult: 0
  }
  bn_param {
    slope_filler {
      type: "constant"
      value: 1
    }
    bias_filler {
      type: "constant"
      value: 0
    }
    momentum: 0.95
    frozen: true
  }
}
layer {
  name: "relu3_2"
  type: "ReLU"
  bottom: "conv3_2"
  top: "conv3_2"
}
layer {
  name: "conv3_3"
  type: "Convolution"
  bottom: "conv3_2"
  top: "conv3_3"
  param {
    name: "conv3_3_w"
    lr_mult: 1
  }
  param {
    name: "conv3_3_b"
    lr_mult: 2
  }
  convolution_param {
    num_output: 256
    pad: 1
    kernel_size: 3
  }
}
layer {
  name: "conv3_3_bn"
  type: "BN"
  bottom: "conv3_3"
  top: "conv3_3"
  param {
    lr_mult: 1
    decay_mult: 0
  }
  param {
    lr_mult: 1
    decay_mult: 0
  }
  param {
    lr_mult: 0
    decay_mult: 0
  }
  param {
    lr_mult: 0
    decay_mult: 0
  }
  bn_param {
    slope_filler {
      type: "constant"
      value: 1
    }
    bias_filler {
      type: "constant"
      value: 0
    }
    momentum: 0.95
    frozen: true
  }
}
layer {
  name: "relu3_3"
  type: "ReLU"
  bottom: "conv3_3"
  top: "conv3_3"
}
layer {
  name: "pool3"
  type: "Pooling"
  bottom: "conv3_3"
  top: "pool3"
  pooling_param {
    pool: MAX
    kernel_size: 2
    stride: 2
  }
}
layer {
  name: "conv4_1"
  type: "Convolution"
  bottom: "pool3"
  top: "conv4_1"
  param {
    name: "conv4_1_w"
    lr_mult: 1
  }
  param {
    name: "conv4_1_b"
    lr_mult: 2
  }
  convolution_param {
    num_output: 512
    pad: 1
    kernel_size: 3
  }
}
layer {
  name: "conv4_1_bn"
  type: "BN"
  bottom: "conv4_1"
  top: "conv4_1"
  param {
    lr_mult: 1
    decay_mult: 0
  }
  param {
    lr_mult: 1
    decay_mult: 0
  }
  param {
    lr_mult: 0
    decay_mult: 0
  }
  param {
    lr_mult: 0
    decay_mult: 0
  }
  bn_param {
    slope_filler {
      type: "constant"
      value: 1
    }
    bias_filler {
      type: "constant"
      value: 0
    }
    momentum: 0.95
    frozen: true
  }
}
layer {
  name: "relu4_1"
  type: "ReLU"
  bottom: "conv4_1"
  top: "conv4_1"
}
layer {
  name: "conv4_2"
  type: "Convolution"
  bottom: "conv4_1"
  top: "conv4_2"
  param {
    name: "conv4_2_w"
    lr_mult: 1
  }
  param {
    name: "conv4_2_b"
    lr_mult: 2
  }
  convolution_param {
    num_output: 512
    pad: 1
    kernel_size: 3
  }
}
layer {
  name: "conv4_2_bn"
  type: "BN"
  bottom: "conv4_2"
  top: "conv4_2"
  param {
    lr_mult: 1
    decay_mult: 0
  }
  param {
    lr_mult: 1
    decay_mult: 0
  }
  param {
    lr_mult: 0
    decay_mult: 0
  }
  param {
    lr_mult: 0
    decay_mult: 0
  }
  bn_param {
    slope_filler {
      type: "constant"
      value: 1
    }
    bias_filler {
      type: "constant"
      value: 0
    }
    momentum: 0.95
    frozen: true
  }
}
layer {
  name: "relu4_2"
  type: "ReLU"
  bottom: "conv4_2"
  top: "conv4_2"
}
layer {
  name: "conv4_3"
  type: "Convolution"
  bottom: "conv4_2"
  top: "conv4_3"
  param {
    name: "conv4_3_w"
    lr_mult: 1
  }
  param {
    name: "conv4_3_b"
    lr_mult: 2
  }
  convolution_param {
    num_output: 512
    pad: 1
    kernel_size: 3
  }
}
layer {
  name: "conv4_3_bn"
  type: "BN"
  bottom: "conv4_3"
  top: "conv4_3"
  param {
    lr_mult: 1
    decay_mult: 0
  }
  param {
    lr_mult: 1
    decay_mult: 0
  }
  param {
    lr_mult: 0
    decay_mult: 0
  }
  param {
    lr_mult: 0
    decay_mult: 0
  }
  bn_param {
    slope_filler {
      type: "constant"
      value: 1
    }
    bias_filler {
      type: "constant"
      value: 0
    }
    momentum: 0.95
    frozen: true
  }
}
layer {
  name: "relu4_3"
  type: "ReLU"
  bottom: "conv4_3"
  top: "relu4_3"
}
layer {
  name: "conv5_1"
  type: "Convolution"
  bottom: "relu4_3"
  top: "conv5_1"
  param {
    name: "conv5_1_w"
    lr_mult: 1
  }
  param {
    name: "conv5_1_b"
    lr_mult: 2
  }
  convolution_param {
    num_output: 512
    pad: 2
    kernel_size: 3
    dilation: 2
  }
}
layer {
  name: "conv5_1_bn"
  type: "BN"
  bottom: "conv5_1"
  top: "conv5_1"
  param {
    lr_mult: 1
    decay_mult: 0
  }
  param {
    lr_mult: 1
    decay_mult: 0
  }
  param {
    lr_mult: 0
    decay_mult: 0
  }
  param {
    lr_mult: 0
    decay_mult: 0
  }
  bn_param {
    slope_filler {
      type: "constant"
      value: 1
    }
    bias_filler {
      type: "constant"
      value: 0
    }
    momentum: 0.95
    frozen: true
  }
}
layer {
  name: "relu5_1"
  type: "ReLU"
  bottom: "conv5_1"
  top: "conv5_1"
}
layer {
  name: "conv5_2"
  type: "Convolution"
  bottom: "conv5_1"
  top: "conv5_2"
  param {
    name: "conv5_2_w"
    lr_mult: 1
  }
  param {
    name: "conv5_2_b"
    lr_mult: 2
  }
  convolution_param {
    num_output: 512
    pad: 4
    kernel_size: 3
    dilation: 4
  }
}
layer {
  name: "conv5_2_bn"
  type: "BN"
  bottom: "conv5_2"
  top: "conv5_2"
  param {
    lr_mult: 1
    decay_mult: 0
  }
  param {
    lr_mult: 1
    decay_mult: 0
  }
  param {
    lr_mult: 0
    decay_mult: 0
  }
  param {
    lr_mult: 0
    decay_mult: 0
  }
  bn_param {
    slope_filler {
      type: "constant"
      value: 1
    }
    bias_filler {
      type: "constant"
      value: 0
    }
    momentum: 0.95
    frozen: true
  }
}
layer {
  name: "relu5_2"
  type: "ReLU"
  bottom: "conv5_2"
  top: "conv5_2"
}
layer {
  name: "conv5_3"
  type: "Convolution"
  bottom: "conv5_2"
  top: "conv5_3"
  param {
    name: "conv5_3_w"
    lr_mult: 1
  }
  param {
    name: "conv5_3_b"
    lr_mult: 2
  }
  convolution_param {
    num_output: 512
    pad: 8
    kernel_size: 3
    dilation: 8
  }
}
layer {
  name: "conv5_3_bn"
  type: "BN"
  bottom: "conv5_3"
  top: "conv5_3"
  param {
    lr_mult: 1
    decay_mult: 0
  }
  param {
    lr_mult: 1
    decay_mult: 0
  }
  param {
    lr_mult: 0
    decay_mult: 0
  }
  param {
    lr_mult: 0
    decay_mult: 0
  }
  bn_param {
    slope_filler {
      type: "constant"
      value: 1
    }
    bias_filler {
      type: "constant"
      value: 0
    }
    momentum: 0.95
    frozen: true
  }
}
layer {
  name: "conv5"
  type: "Eltwise"
  bottom: "conv4_3"
  bottom: "conv5_3"
  top: "conv5"
  eltwise_param {
    operation: SUM
  }
}
layer {
  name: "relu5"
  type: "ReLU"
  bottom: "conv5"
  top: "relu5"
}
layer {
  name: "fc6_1"
  type: "Convolution"
  bottom: "relu5"
  top: "fc6_1"
  param {
    name: "fc6_1_w"
    lr_mult: 1
    decay_mult: 1
  }
  param {
    name: "fc6_1_b"
    lr_mult: 2
    decay_mult: 1
  }
  convolution_param {
    num_output: 128
    pad: 2
    kernel_size: 3
    weight_filler {
      type: "msra"
    }
    dilation: 2
  }
}
layer {
  name: "relu6_1"
  type: "ReLU"
  bottom: "fc6_1"
  top: "fc6_1"
}
layer {
  name: "fc6_2"
  type: "Convolution"
  bottom: "relu5"
  top: "fc6_2"
  param {
    name: "fc6_2_w"
    lr_mult: 1
    decay_mult: 1
  }
  param {
    name: "fc6_2_b"
    lr_mult: 2
    decay_mult: 1
  }
  convolution_param {
    num_output: 128
    pad: 4
    kernel_size: 3
    weight_filler {
      type: "msra"
    }
    dilation: 4
  }
}
layer {
  name: "relu6_2"
  type: "ReLU"
  bottom: "fc6_2"
  top: "fc6_2"
}
layer {
  name: "fc6_3"
  type: "Convolution"
  bottom: "relu5"
  top: "fc6_3"
  param {
    name: "fc6_3_w"
    lr_mult: 1
    decay_mult: 1
  }
  param {
    name: "fc6_3_b"
    lr_mult: 2
    decay_mult: 1
  }
  convolution_param {
    num_output: 128
    pad: 8
    kernel_size: 3
    weight_filler {
      type: "msra"
    }
    dilation: 8
  }
}
layer {
  name: "relu6_3"
  type: "ReLU"
  bottom: "fc6_3"
  top: "fc6_3"
}
layer {
  name: "fc6_4"
  type: "Convolution"
  bottom: "relu5"
  top: "fc6_4"
  param {
    name: "fc6_4_w"
    lr_mult: 1
    decay_mult: 1
  }
  param {
    name: "fc6_4_b"
    lr_mult: 2
    decay_mult: 1
  }
  convolution_param {
    num_output: 128
    pad: 16
    kernel_size: 3
    weight_filler {
      type: "msra"
    }
    dilation: 16
  }
}
layer {
  name: "relu6_4"
  type: "ReLU"
  bottom: "fc6_4"
  top: "fc6_4"
}
layer {
  name: "concat4"
  type: "Concat"
  bottom: "fc6_1"
  bottom: "fc6_2"
  bottom: "fc6_3"
  bottom: "fc6_4"
  top: "concat4"
  concat_param {
    concat_dim: 1
  }
}
layer {
  name: "concat4_512"
  type: "Convolution"
  bottom: "concat4"
  top: "concat4_512"
  param {
    name: "concat4_w"
    lr_mult: 1
    decay_mult: 1
  }
  param {
    name: "concat4_b"
    lr_mult: 2
    decay_mult: 1
  }
  convolution_param {
    num_output: 512
    pad: 0
    kernel_size: 1
    weight_filler {
      type: "msra"
    }
  }
}
layer {
  name: "sum_5_concat4"
  type: "Eltwise"
  bottom: "concat4_512"
  bottom: "conv5"
  top: "sum_5_concat4"
  eltwise_param {
    operation: SUM
  }
}
layer {
  name: "relu_sum"
  type: "ReLU"
  bottom: "sum_5_concat4"
  top: "sum_5_concat4"
}
layer {
  name: "conv5_4"
  type: "Convolution"
  bottom: "sum_5_concat4"
  top: "conv5_4"
  param {
    name: "conv5_4_w"
    lr_mult: 1
    decay_mult: 1
  }
  convolution_param {
    num_output: 64
    bias_term: false
    pad: 1
    kernel_size: 3
    stride: 1
    weight_filler {
      type: "msra"
    }
  }
}
layer {
  name: "conv5_4/bn"
  type: "BN"
  bottom: "conv5_4"
  top: "conv5_4"
  param {
    lr_mult: 1
    decay_mult: 0
  }
  param {
    lr_mult: 1
    decay_mult: 0
  }
  param {
    lr_mult: 0
    decay_mult: 1
  }
  param {
    lr_mult: 0
    decay_mult: 0
  }
  bn_param {
    slope_filler {
      type: "constant"
      value: 1
    }
    bias_filler {
      type: "constant"
      value: 0
    }
    momentum: 0.95
    frozen: true
  }
}
layer {
  name: "conv5_4/relu"
  type: "ReLU"
  bottom: "conv5_4"
  top: "conv5_4"
}
layer {
  name: "conv5_4/dropout"
  type: "Dropout"
  bottom: "conv5_4"
  top: "conv5_4"
  dropout_param {
    dropout_ratio: 0.5
  }
}
layer {
  name: "conv6"
  type: "Convolution"
  bottom: "conv5_4"
  top: "conv6"
  param {
    name: "conv6_w"
    lr_mult: 1
    decay_mult: 1
  }
  param {
    name: "conv6_b"
    lr_mult: 2
    decay_mult: 1
  }
  convolution_param {
    num_output: 1
    kernel_size: 1
    stride: 1
    weight_filler {
      type: "msra"
    }
  }
}
layer {
  name: "conv6/bn"
  type: "BN"
  bottom: "conv6"
  top: "conv6"
  param {
    lr_mult: 1
    decay_mult: 0
  }
  param {
    lr_mult: 1
    decay_mult: 0
  }
  param {
    lr_mult: 0
    decay_mult: 1
  }
  param {
    lr_mult: 0
    decay_mult: 0
  }
  bn_param {
    slope_filler {
      type: "constant"
      value: 1
    }
    bias_filler {
      type: "constant"
      value: 0
    }
    momentum: 0.95
    frozen: true
  }
}
layer {
  name: "relu6"
  type: "ReLU"
  bottom: "conv6"
  top: "relu6"
  relu_param {
    negative_slope: 0.1
  }
}
layer {
  name: "reshape-cm"
  type: "Reshape"
  bottom: "clip_markers"
  top: "reshape-cm"
  reshape_param {
    shape {
      dim: 16
      dim: 1
    }
  }
}
layer {
  name: "reshape-data"
  type: "Reshape"
  bottom: "relu6"
  top: "conv6-reshape"
  reshape_param {
    shape {
      dim: 16
      dim: 1
      dim: 1
      dim: 32
      dim: 32
    }
  }
}
layer {
  name: "dummy"
  type: "DummyData"
  top: "dummy"
  dummy_data_param {
    shape {
      dim: 1
      dim: 1
      dim: 32
      dim: 32
      dim: 32
    }
  }
}
layer {
  name: "encode1"
  type: "ConvLSTM"
  bottom: "conv6-reshape"
  bottom: "reshape-cm"
  bottom: "dummy"
  bottom: "dummy"
  top: "encode1"
  top: "encode1_h"
  top: "encode1_c"
  recurrent_param {
    expose_hidden: true
  }
  lstm_conv_param {
    num_output: 32
    pad: 1
    kernel_size: 3
    weight_filler {
      type: "uniform"
      min: -0.0297
      max: 0.0297
    }
    bias_filler {
      type: "constant"
      value: 0
    }
  }
  lstm_debug_param {
    axis_hadamard: 3
    num_axes_hadamard: 2
  }
}
layer {
  name: "encode2"
  type: "ConvLSTM"
  bottom: "conv6-reshape"
  bottom: "reshape-cm"
  bottom: "dummy"
  bottom: "dummy"
  top: "encode2"
  top: "encode2_h"
  top: "encode2_c"
  recurrent_param {
    expose_hidden: true
  }
  lstm_conv_param {
    num_output: 32
    pad: 2
    kernel_size: 3
    weight_filler {
      type: "uniform"
      min: -0.0297
      max: 0.0297
    }
    bias_filler {
      type: "constant"
      value: 0
    }
    dilation: 2
  }
  lstm_debug_param {
    axis_hadamard: 3
    num_axes_hadamard: 2
  }
}
layer {
  name: "encode3"
  type: "ConvLSTM"
  bottom: "conv6-reshape"
  bottom: "reshape-cm"
  bottom: "dummy"
  bottom: "dummy"
  top: "encode3"
  top: "encode3_h"
  top: "encode3_c"
  recurrent_param {
    expose_hidden: true
  }
  lstm_conv_param {
    num_output: 32
    pad: 4
    kernel_size: 3
    weight_filler {
      type: "uniform"
      min: -0.0297
      max: 0.0297
    }
    bias_filler {
      type: "constant"
      value: 0
    }
    dilation: 4
  }
  lstm_debug_param {
    axis_hadamard: 3
    num_axes_hadamard: 2
  }
}
layer {
  name: "encode4"
  type: "ConvLSTM"
  bottom: "conv6-reshape"
  bottom: "reshape-cm"
  bottom: "dummy"
  bottom: "dummy"
  top: "encode4"
  top: "encode4_h"
  top: "encode4_c"
  recurrent_param {
    expose_hidden: true
  }
  lstm_conv_param {
    num_output: 32
    pad: 8
    kernel_size: 3
    weight_filler {
      type: "uniform"
      min: -0.0297
      max: 0.0297
    }
    bias_filler {
      type: "constant"
      value: 0
    }
    dilation: 8
  }
  lstm_debug_param {
    axis_hadamard: 3
    num_axes_hadamard: 2
  }
}
layer {
  name: "reshape_encode1"
  type: "Reshape"
  bottom: "encode1"
  top: "reshape_encode1"
  reshape_param {
    shape {
      dim: 16
      dim: 32
      dim: 32
      dim: 32
    }
  }
}
layer {
  name: "reshape_encode2"
  type: "Reshape"
  bottom: "encode2"
  top: "reshape_encode2"
  reshape_param {
    shape {
      dim: 16
      dim: 32
      dim: 32
      dim: 32
    }
  }
}
layer {
  name: "reshape_encode3"
  type: "Reshape"
  bottom: "encode3"
  top: "reshape_encode3"
  reshape_param {
    shape {
      dim: 16
      dim: 32
      dim: 32
      dim: 32
    }
  }
}
layer {
  name: "reshape_encode4"
  type: "Reshape"
  bottom: "encode4"
  top: "reshape_encode4"
  reshape_param {
    shape {
      dim: 16
      dim: 32
      dim: 32
      dim: 32
    }
  }
}
layer {
  name: "concat_encode1234"
  type: "Concat"
  bottom: "reshape_encode1"
  bottom: "reshape_encode2"
  bottom: "reshape_encode3"
  bottom: "reshape_encode4"
  top: "concat_encode1234"
  concat_param {
    concat_dim: 1
  }
}
layer {
  name: "conv7_"
  type: "Convolution"
  bottom: "concat_encode1234"
  top: "conv7"
  param {
    lr_mult: 1
  }
  param {
    lr_mult: 2
  }
  convolution_param {
    num_output: 1
    pad: 0
    kernel_size: 1
  }
}
layer {
  name: "conv7_interp"
  type: "Interp"
  bottom: "conv7"
  top: "conv7_interp"
  interp_param {
    height: 256
    width: 256
  }
}
layer {
  name: "loss"
  type: "SigmoidCrossEntropyLoss"
  bottom: "conv7_interp"
  bottom: "label"
  top: "loss"
}
layer {
  name: "silence"
  type: "Silence"
  bottom: "encode1_h"
  bottom: "encode2_h"
  bottom: "encode3_h"
  bottom: "encode4_h"
  bottom: "encode1_c"
  bottom: "encode2_c"
  bottom: "encode3_c"
  bottom: "encode4_c"
}
I1223 00:14:22.270190 25375 layer_factory.hpp:77] Creating layer data
/usr/local/lib/python2.7/dist-packages/h5py/__init__.py:68: UserWarning: h5py is running against HDF5 1.8.16 when it was built against 1.8.18, this may cause problems
  '{0}.{1}.{2}'.format(*version.hdf5_built_version_tuple)
I1223 00:14:22.813880 25375 net.cpp:84] Creating Layer data
I1223 00:14:22.813897 25375 net.cpp:380] data -> data
I1223 00:14:22.813913 25375 net.cpp:380] data -> label
I1223 00:14:22.813920 25375 net.cpp:380] data -> clip_markers
I1223 00:14:23.481727 25375 net.cpp:122] Setting up data
I1223 00:14:23.481765 25375 net.cpp:129] Top shape: 16 3 256 256 (3145728)
I1223 00:14:23.481771 25375 net.cpp:129] Top shape: 16 1 256 256 (1048576)
I1223 00:14:23.481776 25375 net.cpp:129] Top shape: 16 (16)
I1223 00:14:23.481778 25375 net.cpp:137] Memory required for data: 16777280
I1223 00:14:23.481797 25375 layer_factory.hpp:77] Creating layer conv1_1
I1223 00:14:23.481825 25375 net.cpp:84] Creating Layer conv1_1
I1223 00:14:23.481832 25375 net.cpp:406] conv1_1 <- data
I1223 00:14:23.481854 25375 net.cpp:380] conv1_1 -> conv1_1
I1223 00:14:23.483520 25375 net.cpp:122] Setting up conv1_1
I1223 00:14:23.483534 25375 net.cpp:129] Top shape: 16 64 256 256 (67108864)
I1223 00:14:23.483538 25375 net.cpp:137] Memory required for data: 285212736
I1223 00:14:23.483557 25375 layer_factory.hpp:77] Creating layer conv1_1_bn
I1223 00:14:23.483570 25375 net.cpp:84] Creating Layer conv1_1_bn
I1223 00:14:23.483577 25375 net.cpp:406] conv1_1_bn <- conv1_1
I1223 00:14:23.483585 25375 net.cpp:367] conv1_1_bn -> conv1_1 (in-place)
I1223 00:14:23.483840 25375 net.cpp:122] Setting up conv1_1_bn
I1223 00:14:23.483850 25375 net.cpp:129] Top shape: 16 64 256 256 (67108864)
I1223 00:14:23.483852 25375 net.cpp:137] Memory required for data: 553648192
I1223 00:14:23.483876 25375 layer_factory.hpp:77] Creating layer relu1_1
I1223 00:14:23.483886 25375 net.cpp:84] Creating Layer relu1_1
I1223 00:14:23.483888 25375 net.cpp:406] relu1_1 <- conv1_1
I1223 00:14:23.483894 25375 net.cpp:367] relu1_1 -> conv1_1 (in-place)
I1223 00:14:23.483901 25375 net.cpp:122] Setting up relu1_1
I1223 00:14:23.483906 25375 net.cpp:129] Top shape: 16 64 256 256 (67108864)
I1223 00:14:23.483909 25375 net.cpp:137] Memory required for data: 822083648
I1223 00:14:23.483914 25375 layer_factory.hpp:77] Creating layer conv1_2
I1223 00:14:23.483922 25375 net.cpp:84] Creating Layer conv1_2
I1223 00:14:23.483927 25375 net.cpp:406] conv1_2 <- conv1_1
I1223 00:14:23.483932 25375 net.cpp:380] conv1_2 -> conv1_2
I1223 00:14:23.484182 25375 net.cpp:122] Setting up conv1_2
I1223 00:14:23.484192 25375 net.cpp:129] Top shape: 16 64 256 256 (67108864)
I1223 00:14:23.484196 25375 net.cpp:137] Memory required for data: 1090519104
I1223 00:14:23.484201 25375 layer_factory.hpp:77] Creating layer conv1_2_bn
I1223 00:14:23.484208 25375 net.cpp:84] Creating Layer conv1_2_bn
I1223 00:14:23.484213 25375 net.cpp:406] conv1_2_bn <- conv1_2
I1223 00:14:23.484223 25375 net.cpp:367] conv1_2_bn -> conv1_2 (in-place)
I1223 00:14:23.484442 25375 net.cpp:122] Setting up conv1_2_bn
I1223 00:14:23.484452 25375 net.cpp:129] Top shape: 16 64 256 256 (67108864)
I1223 00:14:23.484454 25375 net.cpp:137] Memory required for data: 1358954560
I1223 00:14:23.484463 25375 layer_factory.hpp:77] Creating layer relu1_2
I1223 00:14:23.484472 25375 net.cpp:84] Creating Layer relu1_2
I1223 00:14:23.484474 25375 net.cpp:406] relu1_2 <- conv1_2
I1223 00:14:23.484479 25375 net.cpp:367] relu1_2 -> conv1_2 (in-place)
I1223 00:14:23.484485 25375 net.cpp:122] Setting up relu1_2
I1223 00:14:23.484489 25375 net.cpp:129] Top shape: 16 64 256 256 (67108864)
I1223 00:14:23.484493 25375 net.cpp:137] Memory required for data: 1627390016
I1223 00:14:23.484498 25375 layer_factory.hpp:77] Creating layer pool1
I1223 00:14:23.484503 25375 net.cpp:84] Creating Layer pool1
I1223 00:14:23.484505 25375 net.cpp:406] pool1 <- conv1_2
I1223 00:14:23.484511 25375 net.cpp:380] pool1 -> pool1
I1223 00:14:23.484551 25375 net.cpp:122] Setting up pool1
I1223 00:14:23.484560 25375 net.cpp:129] Top shape: 16 64 128 128 (16777216)
I1223 00:14:23.484563 25375 net.cpp:137] Memory required for data: 1694498880
I1223 00:14:23.484566 25375 layer_factory.hpp:77] Creating layer conv2_1
I1223 00:14:23.484578 25375 net.cpp:84] Creating Layer conv2_1
I1223 00:14:23.484585 25375 net.cpp:406] conv2_1 <- pool1
I1223 00:14:23.484591 25375 net.cpp:380] conv2_1 -> conv2_1
I1223 00:14:23.486153 25375 net.cpp:122] Setting up conv2_1
I1223 00:14:23.486168 25375 net.cpp:129] Top shape: 16 128 128 128 (33554432)
I1223 00:14:23.486172 25375 net.cpp:137] Memory required for data: 1828716608
I1223 00:14:23.486179 25375 layer_factory.hpp:77] Creating layer conv2_1_bn
I1223 00:14:23.486188 25375 net.cpp:84] Creating Layer conv2_1_bn
I1223 00:14:23.486193 25375 net.cpp:406] conv2_1_bn <- conv2_1
I1223 00:14:23.486202 25375 net.cpp:367] conv2_1_bn -> conv2_1 (in-place)
I1223 00:14:23.486404 25375 net.cpp:122] Setting up conv2_1_bn
I1223 00:14:23.486413 25375 net.cpp:129] Top shape: 16 128 128 128 (33554432)
I1223 00:14:23.486415 25375 net.cpp:137] Memory required for data: 1962934336
I1223 00:14:23.486428 25375 layer_factory.hpp:77] Creating layer relu2_1
I1223 00:14:23.486435 25375 net.cpp:84] Creating Layer relu2_1
I1223 00:14:23.486438 25375 net.cpp:406] relu2_1 <- conv2_1
I1223 00:14:23.486444 25375 net.cpp:367] relu2_1 -> conv2_1 (in-place)
I1223 00:14:23.486450 25375 net.cpp:122] Setting up relu2_1
I1223 00:14:23.486456 25375 net.cpp:129] Top shape: 16 128 128 128 (33554432)
I1223 00:14:23.486459 25375 net.cpp:137] Memory required for data: 2097152064
I1223 00:14:23.486462 25375 layer_factory.hpp:77] Creating layer conv2_2
I1223 00:14:23.486469 25375 net.cpp:84] Creating Layer conv2_2
I1223 00:14:23.486472 25375 net.cpp:406] conv2_2 <- conv2_1
I1223 00:14:23.486481 25375 net.cpp:380] conv2_2 -> conv2_2
I1223 00:14:23.486776 25375 net.cpp:122] Setting up conv2_2
I1223 00:14:23.486785 25375 net.cpp:129] Top shape: 16 128 128 128 (33554432)
I1223 00:14:23.486788 25375 net.cpp:137] Memory required for data: 2231369792
I1223 00:14:23.486793 25375 layer_factory.hpp:77] Creating layer conv2_2_bn
I1223 00:14:23.486804 25375 net.cpp:84] Creating Layer conv2_2_bn
I1223 00:14:23.486809 25375 net.cpp:406] conv2_2_bn <- conv2_2
I1223 00:14:23.486814 25375 net.cpp:367] conv2_2_bn -> conv2_2 (in-place)
I1223 00:14:23.486999 25375 net.cpp:122] Setting up conv2_2_bn
I1223 00:14:23.487007 25375 net.cpp:129] Top shape: 16 128 128 128 (33554432)
I1223 00:14:23.487010 25375 net.cpp:137] Memory required for data: 2365587520
I1223 00:14:23.487020 25375 layer_factory.hpp:77] Creating layer relu2_2
I1223 00:14:23.487026 25375 net.cpp:84] Creating Layer relu2_2
I1223 00:14:23.487030 25375 net.cpp:406] relu2_2 <- conv2_2
I1223 00:14:23.487035 25375 net.cpp:367] relu2_2 -> conv2_2 (in-place)
I1223 00:14:23.487067 25375 net.cpp:122] Setting up relu2_2
I1223 00:14:23.487089 25375 net.cpp:129] Top shape: 16 128 128 128 (33554432)
I1223 00:14:23.487107 25375 net.cpp:137] Memory required for data: 2499805248
I1223 00:14:23.487123 25375 layer_factory.hpp:77] Creating layer pool2
I1223 00:14:23.487150 25375 net.cpp:84] Creating Layer pool2
I1223 00:14:23.487170 25375 net.cpp:406] pool2 <- conv2_2
I1223 00:14:23.487190 25375 net.cpp:380] pool2 -> pool2
I1223 00:14:23.487246 25375 net.cpp:122] Setting up pool2
I1223 00:14:23.487267 25375 net.cpp:129] Top shape: 16 128 64 64 (8388608)
I1223 00:14:23.487283 25375 net.cpp:137] Memory required for data: 2533359680
I1223 00:14:23.487299 25375 layer_factory.hpp:77] Creating layer conv3_1
I1223 00:14:23.487326 25375 net.cpp:84] Creating Layer conv3_1
I1223 00:14:23.487345 25375 net.cpp:406] conv3_1 <- pool2
I1223 00:14:23.487367 25375 net.cpp:380] conv3_1 -> conv3_1
I1223 00:14:23.487782 25375 net.cpp:122] Setting up conv3_1
I1223 00:14:23.487813 25375 net.cpp:129] Top shape: 16 256 64 64 (16777216)
I1223 00:14:23.487831 25375 net.cpp:137] Memory required for data: 2600468544
I1223 00:14:23.487851 25375 layer_factory.hpp:77] Creating layer conv3_1_bn
I1223 00:14:23.487876 25375 net.cpp:84] Creating Layer conv3_1_bn
I1223 00:14:23.487895 25375 net.cpp:406] conv3_1_bn <- conv3_1
I1223 00:14:23.487915 25375 net.cpp:367] conv3_1_bn -> conv3_1 (in-place)
I1223 00:14:23.488119 25375 net.cpp:122] Setting up conv3_1_bn
I1223 00:14:23.488142 25375 net.cpp:129] Top shape: 16 256 64 64 (16777216)
I1223 00:14:23.488159 25375 net.cpp:137] Memory required for data: 2667577408
I1223 00:14:23.488183 25375 layer_factory.hpp:77] Creating layer relu3_1
I1223 00:14:23.488203 25375 net.cpp:84] Creating Layer relu3_1
I1223 00:14:23.488220 25375 net.cpp:406] relu3_1 <- conv3_1
I1223 00:14:23.488240 25375 net.cpp:367] relu3_1 -> conv3_1 (in-place)
I1223 00:14:23.488260 25375 net.cpp:122] Setting up relu3_1
I1223 00:14:23.488281 25375 net.cpp:129] Top shape: 16 256 64 64 (16777216)
I1223 00:14:23.488297 25375 net.cpp:137] Memory required for data: 2734686272
I1223 00:14:23.488315 25375 layer_factory.hpp:77] Creating layer conv3_2
I1223 00:14:23.488334 25375 net.cpp:84] Creating Layer conv3_2
I1223 00:14:23.488353 25375 net.cpp:406] conv3_2 <- conv3_1
I1223 00:14:23.488375 25375 net.cpp:380] conv3_2 -> conv3_2
I1223 00:14:23.489778 25375 net.cpp:122] Setting up conv3_2
I1223 00:14:23.489794 25375 net.cpp:129] Top shape: 16 256 64 64 (16777216)
I1223 00:14:23.489796 25375 net.cpp:137] Memory required for data: 2801795136
I1223 00:14:23.489804 25375 layer_factory.hpp:77] Creating layer conv3_2_bn
I1223 00:14:23.489814 25375 net.cpp:84] Creating Layer conv3_2_bn
I1223 00:14:23.489820 25375 net.cpp:406] conv3_2_bn <- conv3_2
I1223 00:14:23.489825 25375 net.cpp:367] conv3_2_bn -> conv3_2 (in-place)
I1223 00:14:23.490013 25375 net.cpp:122] Setting up conv3_2_bn
I1223 00:14:23.490022 25375 net.cpp:129] Top shape: 16 256 64 64 (16777216)
I1223 00:14:23.490025 25375 net.cpp:137] Memory required for data: 2868904000
I1223 00:14:23.490041 25375 layer_factory.hpp:77] Creating layer relu3_2
I1223 00:14:23.490048 25375 net.cpp:84] Creating Layer relu3_2
I1223 00:14:23.490052 25375 net.cpp:406] relu3_2 <- conv3_2
I1223 00:14:23.490058 25375 net.cpp:367] relu3_2 -> conv3_2 (in-place)
I1223 00:14:23.490064 25375 net.cpp:122] Setting up relu3_2
I1223 00:14:23.490069 25375 net.cpp:129] Top shape: 16 256 64 64 (16777216)
I1223 00:14:23.490072 25375 net.cpp:137] Memory required for data: 2936012864
I1223 00:14:23.490074 25375 layer_factory.hpp:77] Creating layer conv3_3
I1223 00:14:23.490080 25375 net.cpp:84] Creating Layer conv3_3
I1223 00:14:23.490084 25375 net.cpp:406] conv3_3 <- conv3_2
I1223 00:14:23.490090 25375 net.cpp:380] conv3_3 -> conv3_3
I1223 00:14:23.491478 25375 net.cpp:122] Setting up conv3_3
I1223 00:14:23.491493 25375 net.cpp:129] Top shape: 16 256 64 64 (16777216)
I1223 00:14:23.491497 25375 net.cpp:137] Memory required for data: 3003121728
I1223 00:14:23.491504 25375 layer_factory.hpp:77] Creating layer conv3_3_bn
I1223 00:14:23.491528 25375 net.cpp:84] Creating Layer conv3_3_bn
I1223 00:14:23.491533 25375 net.cpp:406] conv3_3_bn <- conv3_3
I1223 00:14:23.491538 25375 net.cpp:367] conv3_3_bn -> conv3_3 (in-place)
I1223 00:14:23.491758 25375 net.cpp:122] Setting up conv3_3_bn
I1223 00:14:23.491766 25375 net.cpp:129] Top shape: 16 256 64 64 (16777216)
I1223 00:14:23.491770 25375 net.cpp:137] Memory required for data: 3070230592
I1223 00:14:23.491780 25375 layer_factory.hpp:77] Creating layer relu3_3
I1223 00:14:23.491786 25375 net.cpp:84] Creating Layer relu3_3
I1223 00:14:23.491791 25375 net.cpp:406] relu3_3 <- conv3_3
I1223 00:14:23.491794 25375 net.cpp:367] relu3_3 -> conv3_3 (in-place)
I1223 00:14:23.491801 25375 net.cpp:122] Setting up relu3_3
I1223 00:14:23.491804 25375 net.cpp:129] Top shape: 16 256 64 64 (16777216)
I1223 00:14:23.491807 25375 net.cpp:137] Memory required for data: 3137339456
I1223 00:14:23.491811 25375 layer_factory.hpp:77] Creating layer pool3
I1223 00:14:23.491816 25375 net.cpp:84] Creating Layer pool3
I1223 00:14:23.491819 25375 net.cpp:406] pool3 <- conv3_3
I1223 00:14:23.491824 25375 net.cpp:380] pool3 -> pool3
I1223 00:14:23.491863 25375 net.cpp:122] Setting up pool3
I1223 00:14:23.491870 25375 net.cpp:129] Top shape: 16 256 32 32 (4194304)
I1223 00:14:23.491873 25375 net.cpp:137] Memory required for data: 3154116672
I1223 00:14:23.491876 25375 layer_factory.hpp:77] Creating layer conv4_1
I1223 00:14:23.491885 25375 net.cpp:84] Creating Layer conv4_1
I1223 00:14:23.491888 25375 net.cpp:406] conv4_1 <- pool3
I1223 00:14:23.491894 25375 net.cpp:380] conv4_1 -> conv4_1
I1223 00:14:23.495203 25375 net.cpp:122] Setting up conv4_1
I1223 00:14:23.495225 25375 net.cpp:129] Top shape: 16 512 32 32 (8388608)
I1223 00:14:23.495230 25375 net.cpp:137] Memory required for data: 3187671104
I1223 00:14:23.495268 25375 layer_factory.hpp:77] Creating layer conv4_1_bn
I1223 00:14:23.495280 25375 net.cpp:84] Creating Layer conv4_1_bn
I1223 00:14:23.495285 25375 net.cpp:406] conv4_1_bn <- conv4_1
I1223 00:14:23.495293 25375 net.cpp:367] conv4_1_bn -> conv4_1 (in-place)
I1223 00:14:23.495506 25375 net.cpp:122] Setting up conv4_1_bn
I1223 00:14:23.495513 25375 net.cpp:129] Top shape: 16 512 32 32 (8388608)
I1223 00:14:23.495517 25375 net.cpp:137] Memory required for data: 3221225536
I1223 00:14:23.495539 25375 layer_factory.hpp:77] Creating layer relu4_1
I1223 00:14:23.495548 25375 net.cpp:84] Creating Layer relu4_1
I1223 00:14:23.495551 25375 net.cpp:406] relu4_1 <- conv4_1
I1223 00:14:23.495555 25375 net.cpp:367] relu4_1 -> conv4_1 (in-place)
I1223 00:14:23.495561 25375 net.cpp:122] Setting up relu4_1
I1223 00:14:23.495565 25375 net.cpp:129] Top shape: 16 512 32 32 (8388608)
I1223 00:14:23.495568 25375 net.cpp:137] Memory required for data: 3254779968
I1223 00:14:23.495584 25375 layer_factory.hpp:77] Creating layer conv4_2
I1223 00:14:23.495591 25375 net.cpp:84] Creating Layer conv4_2
I1223 00:14:23.495595 25375 net.cpp:406] conv4_2 <- conv4_1
I1223 00:14:23.495601 25375 net.cpp:380] conv4_2 -> conv4_2
I1223 00:14:23.499740 25375 net.cpp:122] Setting up conv4_2
I1223 00:14:23.499763 25375 net.cpp:129] Top shape: 16 512 32 32 (8388608)
I1223 00:14:23.499768 25375 net.cpp:137] Memory required for data: 3288334400
I1223 00:14:23.499794 25375 layer_factory.hpp:77] Creating layer conv4_2_bn
I1223 00:14:23.499819 25375 net.cpp:84] Creating Layer conv4_2_bn
I1223 00:14:23.499825 25375 net.cpp:406] conv4_2_bn <- conv4_2
I1223 00:14:23.499833 25375 net.cpp:367] conv4_2_bn -> conv4_2 (in-place)
I1223 00:14:23.500043 25375 net.cpp:122] Setting up conv4_2_bn
I1223 00:14:23.500051 25375 net.cpp:129] Top shape: 16 512 32 32 (8388608)
I1223 00:14:23.500054 25375 net.cpp:137] Memory required for data: 3321888832
I1223 00:14:23.500077 25375 layer_factory.hpp:77] Creating layer relu4_2
I1223 00:14:23.500082 25375 net.cpp:84] Creating Layer relu4_2
I1223 00:14:23.500087 25375 net.cpp:406] relu4_2 <- conv4_2
I1223 00:14:23.500090 25375 net.cpp:367] relu4_2 -> conv4_2 (in-place)
I1223 00:14:23.500097 25375 net.cpp:122] Setting up relu4_2
I1223 00:14:23.500100 25375 net.cpp:129] Top shape: 16 512 32 32 (8388608)
I1223 00:14:23.500103 25375 net.cpp:137] Memory required for data: 3355443264
I1223 00:14:23.500107 25375 layer_factory.hpp:77] Creating layer conv4_3
I1223 00:14:23.500128 25375 net.cpp:84] Creating Layer conv4_3
I1223 00:14:23.500136 25375 net.cpp:406] conv4_3 <- conv4_2
I1223 00:14:23.500144 25375 net.cpp:380] conv4_3 -> conv4_3
I1223 00:14:23.504400 25375 net.cpp:122] Setting up conv4_3
I1223 00:14:23.504426 25375 net.cpp:129] Top shape: 16 512 32 32 (8388608)
I1223 00:14:23.504431 25375 net.cpp:137] Memory required for data: 3388997696
I1223 00:14:23.504441 25375 layer_factory.hpp:77] Creating layer conv4_3_bn
I1223 00:14:23.504458 25375 net.cpp:84] Creating Layer conv4_3_bn
I1223 00:14:23.504464 25375 net.cpp:406] conv4_3_bn <- conv4_3
I1223 00:14:23.504472 25375 net.cpp:367] conv4_3_bn -> conv4_3 (in-place)
I1223 00:14:23.504683 25375 net.cpp:122] Setting up conv4_3_bn
I1223 00:14:23.504690 25375 net.cpp:129] Top shape: 16 512 32 32 (8388608)
I1223 00:14:23.504693 25375 net.cpp:137] Memory required for data: 3422552128
I1223 00:14:23.504703 25375 layer_factory.hpp:77] Creating layer conv4_3_conv4_3_bn_0_split
I1223 00:14:23.504709 25375 net.cpp:84] Creating Layer conv4_3_conv4_3_bn_0_split
I1223 00:14:23.504712 25375 net.cpp:406] conv4_3_conv4_3_bn_0_split <- conv4_3
I1223 00:14:23.504717 25375 net.cpp:380] conv4_3_conv4_3_bn_0_split -> conv4_3_conv4_3_bn_0_split_0
I1223 00:14:23.504726 25375 net.cpp:380] conv4_3_conv4_3_bn_0_split -> conv4_3_conv4_3_bn_0_split_1
I1223 00:14:23.504765 25375 net.cpp:122] Setting up conv4_3_conv4_3_bn_0_split
I1223 00:14:23.504771 25375 net.cpp:129] Top shape: 16 512 32 32 (8388608)
I1223 00:14:23.504776 25375 net.cpp:129] Top shape: 16 512 32 32 (8388608)
I1223 00:14:23.504778 25375 net.cpp:137] Memory required for data: 3489660992
I1223 00:14:23.504781 25375 layer_factory.hpp:77] Creating layer relu4_3
I1223 00:14:23.504786 25375 net.cpp:84] Creating Layer relu4_3
I1223 00:14:23.504791 25375 net.cpp:406] relu4_3 <- conv4_3_conv4_3_bn_0_split_0
I1223 00:14:23.504796 25375 net.cpp:380] relu4_3 -> relu4_3
I1223 00:14:23.504817 25375 net.cpp:122] Setting up relu4_3
I1223 00:14:23.504825 25375 net.cpp:129] Top shape: 16 512 32 32 (8388608)
I1223 00:14:23.504828 25375 net.cpp:137] Memory required for data: 3523215424
I1223 00:14:23.504832 25375 layer_factory.hpp:77] Creating layer conv5_1
I1223 00:14:23.504839 25375 net.cpp:84] Creating Layer conv5_1
I1223 00:14:23.504845 25375 net.cpp:406] conv5_1 <- relu4_3
I1223 00:14:23.504853 25375 net.cpp:380] conv5_1 -> conv5_1
I1223 00:14:23.509152 25375 net.cpp:122] Setting up conv5_1
I1223 00:14:23.509174 25375 net.cpp:129] Top shape: 16 512 32 32 (8388608)
I1223 00:14:23.509178 25375 net.cpp:137] Memory required for data: 3556769856
I1223 00:14:23.509204 25375 layer_factory.hpp:77] Creating layer conv5_1_bn
I1223 00:14:23.509217 25375 net.cpp:84] Creating Layer conv5_1_bn
I1223 00:14:23.509220 25375 net.cpp:406] conv5_1_bn <- conv5_1
I1223 00:14:23.509227 25375 net.cpp:367] conv5_1_bn -> conv5_1 (in-place)
I1223 00:14:23.509449 25375 net.cpp:122] Setting up conv5_1_bn
I1223 00:14:23.509456 25375 net.cpp:129] Top shape: 16 512 32 32 (8388608)
I1223 00:14:23.509459 25375 net.cpp:137] Memory required for data: 3590324288
I1223 00:14:23.509485 25375 layer_factory.hpp:77] Creating layer relu5_1
I1223 00:14:23.509492 25375 net.cpp:84] Creating Layer relu5_1
I1223 00:14:23.509496 25375 net.cpp:406] relu5_1 <- conv5_1
I1223 00:14:23.509501 25375 net.cpp:367] relu5_1 -> conv5_1 (in-place)
I1223 00:14:23.509506 25375 net.cpp:122] Setting up relu5_1
I1223 00:14:23.509510 25375 net.cpp:129] Top shape: 16 512 32 32 (8388608)
I1223 00:14:23.509513 25375 net.cpp:137] Memory required for data: 3623878720
I1223 00:14:23.509529 25375 layer_factory.hpp:77] Creating layer conv5_2
I1223 00:14:23.509536 25375 net.cpp:84] Creating Layer conv5_2
I1223 00:14:23.509541 25375 net.cpp:406] conv5_2 <- conv5_1
I1223 00:14:23.509546 25375 net.cpp:380] conv5_2 -> conv5_2
I1223 00:14:23.513685 25375 net.cpp:122] Setting up conv5_2
I1223 00:14:23.513708 25375 net.cpp:129] Top shape: 16 512 32 32 (8388608)
I1223 00:14:23.513712 25375 net.cpp:137] Memory required for data: 3657433152
I1223 00:14:23.513736 25375 layer_factory.hpp:77] Creating layer conv5_2_bn
I1223 00:14:23.513748 25375 net.cpp:84] Creating Layer conv5_2_bn
I1223 00:14:23.513767 25375 net.cpp:406] conv5_2_bn <- conv5_2
I1223 00:14:23.513772 25375 net.cpp:367] conv5_2_bn -> conv5_2 (in-place)
I1223 00:14:23.513993 25375 net.cpp:122] Setting up conv5_2_bn
I1223 00:14:23.514000 25375 net.cpp:129] Top shape: 16 512 32 32 (8388608)
I1223 00:14:23.514003 25375 net.cpp:137] Memory required for data: 3690987584
I1223 00:14:23.514011 25375 layer_factory.hpp:77] Creating layer relu5_2
I1223 00:14:23.514031 25375 net.cpp:84] Creating Layer relu5_2
I1223 00:14:23.514034 25375 net.cpp:406] relu5_2 <- conv5_2
I1223 00:14:23.514039 25375 net.cpp:367] relu5_2 -> conv5_2 (in-place)
I1223 00:14:23.514045 25375 net.cpp:122] Setting up relu5_2
I1223 00:14:23.514050 25375 net.cpp:129] Top shape: 16 512 32 32 (8388608)
I1223 00:14:23.514051 25375 net.cpp:137] Memory required for data: 3724542016
I1223 00:14:23.514055 25375 layer_factory.hpp:77] Creating layer conv5_3
I1223 00:14:23.514076 25375 net.cpp:84] Creating Layer conv5_3
I1223 00:14:23.514080 25375 net.cpp:406] conv5_3 <- conv5_2
I1223 00:14:23.514086 25375 net.cpp:380] conv5_3 -> conv5_3
I1223 00:14:23.518216 25375 net.cpp:122] Setting up conv5_3
I1223 00:14:23.518240 25375 net.cpp:129] Top shape: 16 512 32 32 (8388608)
I1223 00:14:23.518244 25375 net.cpp:137] Memory required for data: 3758096448
I1223 00:14:23.518268 25375 layer_factory.hpp:77] Creating layer conv5_3_bn
I1223 00:14:23.518280 25375 net.cpp:84] Creating Layer conv5_3_bn
I1223 00:14:23.518283 25375 net.cpp:406] conv5_3_bn <- conv5_3
I1223 00:14:23.518306 25375 net.cpp:367] conv5_3_bn -> conv5_3 (in-place)
I1223 00:14:23.518512 25375 net.cpp:122] Setting up conv5_3_bn
I1223 00:14:23.518520 25375 net.cpp:129] Top shape: 16 512 32 32 (8388608)
I1223 00:14:23.518523 25375 net.cpp:137] Memory required for data: 3791650880
I1223 00:14:23.518545 25375 layer_factory.hpp:77] Creating layer conv5
I1223 00:14:23.518553 25375 net.cpp:84] Creating Layer conv5
I1223 00:14:23.518569 25375 net.cpp:406] conv5 <- conv4_3_conv4_3_bn_0_split_1
I1223 00:14:23.518574 25375 net.cpp:406] conv5 <- conv5_3
I1223 00:14:23.518579 25375 net.cpp:380] conv5 -> conv5
I1223 00:14:23.518605 25375 net.cpp:122] Setting up conv5
I1223 00:14:23.518611 25375 net.cpp:129] Top shape: 16 512 32 32 (8388608)
I1223 00:14:23.518615 25375 net.cpp:137] Memory required for data: 3825205312
I1223 00:14:23.518617 25375 layer_factory.hpp:77] Creating layer conv5_conv5_0_split
I1223 00:14:23.518622 25375 net.cpp:84] Creating Layer conv5_conv5_0_split
I1223 00:14:23.518625 25375 net.cpp:406] conv5_conv5_0_split <- conv5
I1223 00:14:23.518631 25375 net.cpp:380] conv5_conv5_0_split -> conv5_conv5_0_split_0
I1223 00:14:23.518638 25375 net.cpp:380] conv5_conv5_0_split -> conv5_conv5_0_split_1
I1223 00:14:23.518671 25375 net.cpp:122] Setting up conv5_conv5_0_split
I1223 00:14:23.518678 25375 net.cpp:129] Top shape: 16 512 32 32 (8388608)
I1223 00:14:23.518682 25375 net.cpp:129] Top shape: 16 512 32 32 (8388608)
I1223 00:14:23.518684 25375 net.cpp:137] Memory required for data: 3892314176
I1223 00:14:23.518689 25375 layer_factory.hpp:77] Creating layer relu5
I1223 00:14:23.518694 25375 net.cpp:84] Creating Layer relu5
I1223 00:14:23.518697 25375 net.cpp:406] relu5 <- conv5_conv5_0_split_0
I1223 00:14:23.518703 25375 net.cpp:380] relu5 -> relu5
I1223 00:14:23.518723 25375 net.cpp:122] Setting up relu5
I1223 00:14:23.518728 25375 net.cpp:129] Top shape: 16 512 32 32 (8388608)
I1223 00:14:23.518731 25375 net.cpp:137] Memory required for data: 3925868608
I1223 00:14:23.518734 25375 layer_factory.hpp:77] Creating layer relu5_relu5_0_split
I1223 00:14:23.518740 25375 net.cpp:84] Creating Layer relu5_relu5_0_split
I1223 00:14:23.518743 25375 net.cpp:406] relu5_relu5_0_split <- relu5
I1223 00:14:23.518750 25375 net.cpp:380] relu5_relu5_0_split -> relu5_relu5_0_split_0
I1223 00:14:23.518759 25375 net.cpp:380] relu5_relu5_0_split -> relu5_relu5_0_split_1
I1223 00:14:23.518765 25375 net.cpp:380] relu5_relu5_0_split -> relu5_relu5_0_split_2
I1223 00:14:23.518770 25375 net.cpp:380] relu5_relu5_0_split -> relu5_relu5_0_split_3
I1223 00:14:23.518824 25375 net.cpp:122] Setting up relu5_relu5_0_split
I1223 00:14:23.518844 25375 net.cpp:129] Top shape: 16 512 32 32 (8388608)
I1223 00:14:23.518847 25375 net.cpp:129] Top shape: 16 512 32 32 (8388608)
I1223 00:14:23.518851 25375 net.cpp:129] Top shape: 16 512 32 32 (8388608)
I1223 00:14:23.518854 25375 net.cpp:129] Top shape: 16 512 32 32 (8388608)
I1223 00:14:23.518872 25375 net.cpp:137] Memory required for data: 4060086336
I1223 00:14:23.518875 25375 layer_factory.hpp:77] Creating layer fc6_1
I1223 00:14:23.518884 25375 net.cpp:84] Creating Layer fc6_1
I1223 00:14:23.518887 25375 net.cpp:406] fc6_1 <- relu5_relu5_0_split_0
I1223 00:14:23.518893 25375 net.cpp:380] fc6_1 -> fc6_1
I1223 00:14:23.528362 25375 net.cpp:122] Setting up fc6_1
I1223 00:14:23.528398 25375 net.cpp:129] Top shape: 16 128 32 32 (2097152)
I1223 00:14:23.528414 25375 net.cpp:137] Memory required for data: 4068474944
I1223 00:14:23.528426 25375 layer_factory.hpp:77] Creating layer relu6_1
I1223 00:14:23.528435 25375 net.cpp:84] Creating Layer relu6_1
I1223 00:14:23.528439 25375 net.cpp:406] relu6_1 <- fc6_1
I1223 00:14:23.528445 25375 net.cpp:367] relu6_1 -> fc6_1 (in-place)
I1223 00:14:23.528452 25375 net.cpp:122] Setting up relu6_1
I1223 00:14:23.528456 25375 net.cpp:129] Top shape: 16 128 32 32 (2097152)
I1223 00:14:23.528460 25375 net.cpp:137] Memory required for data: 4076863552
I1223 00:14:23.528461 25375 layer_factory.hpp:77] Creating layer fc6_2
I1223 00:14:23.528471 25375 net.cpp:84] Creating Layer fc6_2
I1223 00:14:23.528475 25375 net.cpp:406] fc6_2 <- relu5_relu5_0_split_1
I1223 00:14:23.528482 25375 net.cpp:380] fc6_2 -> fc6_2
I1223 00:14:23.536177 25375 net.cpp:122] Setting up fc6_2
I1223 00:14:23.536193 25375 net.cpp:129] Top shape: 16 128 32 32 (2097152)
I1223 00:14:23.536197 25375 net.cpp:137] Memory required for data: 4085252160
I1223 00:14:23.536218 25375 layer_factory.hpp:77] Creating layer relu6_2
I1223 00:14:23.536227 25375 net.cpp:84] Creating Layer relu6_2
I1223 00:14:23.536232 25375 net.cpp:406] relu6_2 <- fc6_2
I1223 00:14:23.536237 25375 net.cpp:367] relu6_2 -> fc6_2 (in-place)
I1223 00:14:23.536243 25375 net.cpp:122] Setting up relu6_2
I1223 00:14:23.536248 25375 net.cpp:129] Top shape: 16 128 32 32 (2097152)
I1223 00:14:23.536252 25375 net.cpp:137] Memory required for data: 4093640768
I1223 00:14:23.536269 25375 layer_factory.hpp:77] Creating layer fc6_3
I1223 00:14:23.536279 25375 net.cpp:84] Creating Layer fc6_3
I1223 00:14:23.536283 25375 net.cpp:406] fc6_3 <- relu5_relu5_0_split_2
I1223 00:14:23.536289 25375 net.cpp:380] fc6_3 -> fc6_3
I1223 00:14:23.544327 25375 net.cpp:122] Setting up fc6_3
I1223 00:14:23.544349 25375 net.cpp:129] Top shape: 16 128 32 32 (2097152)
I1223 00:14:23.544353 25375 net.cpp:137] Memory required for data: 4102029376
I1223 00:14:23.544361 25375 layer_factory.hpp:77] Creating layer relu6_3
I1223 00:14:23.544369 25375 net.cpp:84] Creating Layer relu6_3
I1223 00:14:23.544374 25375 net.cpp:406] relu6_3 <- fc6_3
I1223 00:14:23.544380 25375 net.cpp:367] relu6_3 -> fc6_3 (in-place)
I1223 00:14:23.544389 25375 net.cpp:122] Setting up relu6_3
I1223 00:14:23.544392 25375 net.cpp:129] Top shape: 16 128 32 32 (2097152)
I1223 00:14:23.544395 25375 net.cpp:137] Memory required for data: 4110417984
I1223 00:14:23.544397 25375 layer_factory.hpp:77] Creating layer fc6_4
I1223 00:14:23.544407 25375 net.cpp:84] Creating Layer fc6_4
I1223 00:14:23.544421 25375 net.cpp:406] fc6_4 <- relu5_relu5_0_split_3
I1223 00:14:23.544428 25375 net.cpp:380] fc6_4 -> fc6_4
I1223 00:14:23.552031 25375 net.cpp:122] Setting up fc6_4
I1223 00:14:23.552043 25375 net.cpp:129] Top shape: 16 128 32 32 (2097152)
I1223 00:14:23.552047 25375 net.cpp:137] Memory required for data: 4118806592
I1223 00:14:23.552052 25375 layer_factory.hpp:77] Creating layer relu6_4
I1223 00:14:23.552057 25375 net.cpp:84] Creating Layer relu6_4
I1223 00:14:23.552062 25375 net.cpp:406] relu6_4 <- fc6_4
I1223 00:14:23.552067 25375 net.cpp:367] relu6_4 -> fc6_4 (in-place)
I1223 00:14:23.552073 25375 net.cpp:122] Setting up relu6_4
I1223 00:14:23.552076 25375 net.cpp:129] Top shape: 16 128 32 32 (2097152)
I1223 00:14:23.552079 25375 net.cpp:137] Memory required for data: 4127195200
I1223 00:14:23.552084 25375 layer_factory.hpp:77] Creating layer concat4
I1223 00:14:23.552091 25375 net.cpp:84] Creating Layer concat4
I1223 00:14:23.552109 25375 net.cpp:406] concat4 <- fc6_1
I1223 00:14:23.552114 25375 net.cpp:406] concat4 <- fc6_2
I1223 00:14:23.552131 25375 net.cpp:406] concat4 <- fc6_3
I1223 00:14:23.552134 25375 net.cpp:406] concat4 <- fc6_4
I1223 00:14:23.552153 25375 net.cpp:380] concat4 -> concat4
I1223 00:14:23.552191 25375 net.cpp:122] Setting up concat4
I1223 00:14:23.552197 25375 net.cpp:129] Top shape: 16 512 32 32 (8388608)
I1223 00:14:23.552201 25375 net.cpp:137] Memory required for data: 4160749632
I1223 00:14:23.552203 25375 layer_factory.hpp:77] Creating layer concat4_512
I1223 00:14:23.552212 25375 net.cpp:84] Creating Layer concat4_512
I1223 00:14:23.552230 25375 net.cpp:406] concat4_512 <- concat4
I1223 00:14:23.552235 25375 net.cpp:380] concat4_512 -> concat4_512
I1223 00:14:23.556167 25375 net.cpp:122] Setting up concat4_512
I1223 00:14:23.556187 25375 net.cpp:129] Top shape: 16 512 32 32 (8388608)
I1223 00:14:23.556191 25375 net.cpp:137] Memory required for data: 4194304064
I1223 00:14:23.556212 25375 layer_factory.hpp:77] Creating layer sum_5_concat4
I1223 00:14:23.556221 25375 net.cpp:84] Creating Layer sum_5_concat4
I1223 00:14:23.556226 25375 net.cpp:406] sum_5_concat4 <- concat4_512
I1223 00:14:23.556231 25375 net.cpp:406] sum_5_concat4 <- conv5_conv5_0_split_1
I1223 00:14:23.556236 25375 net.cpp:380] sum_5_concat4 -> sum_5_concat4
I1223 00:14:23.556262 25375 net.cpp:122] Setting up sum_5_concat4
I1223 00:14:23.556282 25375 net.cpp:129] Top shape: 16 512 32 32 (8388608)
I1223 00:14:23.556284 25375 net.cpp:137] Memory required for data: 4227858496
I1223 00:14:23.556289 25375 layer_factory.hpp:77] Creating layer relu_sum
I1223 00:14:23.556294 25375 net.cpp:84] Creating Layer relu_sum
I1223 00:14:23.556298 25375 net.cpp:406] relu_sum <- sum_5_concat4
I1223 00:14:23.556301 25375 net.cpp:367] relu_sum -> sum_5_concat4 (in-place)
I1223 00:14:23.556306 25375 net.cpp:122] Setting up relu_sum
I1223 00:14:23.556311 25375 net.cpp:129] Top shape: 16 512 32 32 (8388608)
I1223 00:14:23.556313 25375 net.cpp:137] Memory required for data: 4261412928
I1223 00:14:23.556316 25375 layer_factory.hpp:77] Creating layer conv5_4
I1223 00:14:23.556326 25375 net.cpp:84] Creating Layer conv5_4
I1223 00:14:23.556330 25375 net.cpp:406] conv5_4 <- sum_5_concat4
I1223 00:14:23.556339 25375 net.cpp:380] conv5_4 -> conv5_4
I1223 00:14:23.560530 25375 net.cpp:122] Setting up conv5_4
I1223 00:14:23.560550 25375 net.cpp:129] Top shape: 16 64 32 32 (1048576)
I1223 00:14:23.560554 25375 net.cpp:137] Memory required for data: 4265607232
I1223 00:14:23.560575 25375 layer_factory.hpp:77] Creating layer conv5_4/bn
I1223 00:14:23.560585 25375 net.cpp:84] Creating Layer conv5_4/bn
I1223 00:14:23.560588 25375 net.cpp:406] conv5_4/bn <- conv5_4
I1223 00:14:23.560607 25375 net.cpp:367] conv5_4/bn -> conv5_4 (in-place)
I1223 00:14:23.560878 25375 net.cpp:122] Setting up conv5_4/bn
I1223 00:14:23.560885 25375 net.cpp:129] Top shape: 16 64 32 32 (1048576)
I1223 00:14:23.560889 25375 net.cpp:137] Memory required for data: 4269801536
I1223 00:14:23.560914 25375 layer_factory.hpp:77] Creating layer conv5_4/relu
I1223 00:14:23.560919 25375 net.cpp:84] Creating Layer conv5_4/relu
I1223 00:14:23.560935 25375 net.cpp:406] conv5_4/relu <- conv5_4
I1223 00:14:23.560940 25375 net.cpp:367] conv5_4/relu -> conv5_4 (in-place)
I1223 00:14:23.560945 25375 net.cpp:122] Setting up conv5_4/relu
I1223 00:14:23.560950 25375 net.cpp:129] Top shape: 16 64 32 32 (1048576)
I1223 00:14:23.560966 25375 net.cpp:137] Memory required for data: 4273995840
I1223 00:14:23.560969 25375 layer_factory.hpp:77] Creating layer conv5_4/dropout
I1223 00:14:23.560973 25375 net.cpp:84] Creating Layer conv5_4/dropout
I1223 00:14:23.560989 25375 net.cpp:406] conv5_4/dropout <- conv5_4
I1223 00:14:23.560994 25375 net.cpp:367] conv5_4/dropout -> conv5_4 (in-place)
I1223 00:14:23.561022 25375 net.cpp:122] Setting up conv5_4/dropout
I1223 00:14:23.561028 25375 net.cpp:129] Top shape: 16 64 32 32 (1048576)
I1223 00:14:23.561030 25375 net.cpp:137] Memory required for data: 4278190144
I1223 00:14:23.561034 25375 layer_factory.hpp:77] Creating layer conv6
I1223 00:14:23.561043 25375 net.cpp:84] Creating Layer conv6
I1223 00:14:23.561054 25375 net.cpp:406] conv6 <- conv5_4
I1223 00:14:23.561061 25375 net.cpp:380] conv6 -> conv6
I1223 00:14:23.561296 25375 net.cpp:122] Setting up conv6
I1223 00:14:23.561305 25375 net.cpp:129] Top shape: 16 1 32 32 (16384)
I1223 00:14:23.561307 25375 net.cpp:137] Memory required for data: 4278255680
I1223 00:14:23.561312 25375 layer_factory.hpp:77] Creating layer conv6/bn
I1223 00:14:23.561338 25375 net.cpp:84] Creating Layer conv6/bn
I1223 00:14:23.561342 25375 net.cpp:406] conv6/bn <- conv6
I1223 00:14:23.561360 25375 net.cpp:367] conv6/bn -> conv6 (in-place)
I1223 00:14:23.561566 25375 net.cpp:122] Setting up conv6/bn
I1223 00:14:23.561574 25375 net.cpp:129] Top shape: 16 1 32 32 (16384)
I1223 00:14:23.561576 25375 net.cpp:137] Memory required for data: 4278321216
I1223 00:14:23.561601 25375 layer_factory.hpp:77] Creating layer relu6
I1223 00:14:23.561606 25375 net.cpp:84] Creating Layer relu6
I1223 00:14:23.561624 25375 net.cpp:406] relu6 <- conv6
I1223 00:14:23.561627 25375 net.cpp:380] relu6 -> relu6
I1223 00:14:23.561651 25375 net.cpp:122] Setting up relu6
I1223 00:14:23.561657 25375 net.cpp:129] Top shape: 16 1 32 32 (16384)
I1223 00:14:23.561661 25375 net.cpp:137] Memory required for data: 4278386752
I1223 00:14:23.561664 25375 layer_factory.hpp:77] Creating layer reshape-cm
I1223 00:14:23.561669 25375 net.cpp:84] Creating Layer reshape-cm
I1223 00:14:23.561672 25375 net.cpp:406] reshape-cm <- clip_markers
I1223 00:14:23.561678 25375 net.cpp:380] reshape-cm -> reshape-cm
I1223 00:14:23.561704 25375 net.cpp:122] Setting up reshape-cm
I1223 00:14:23.561710 25375 net.cpp:129] Top shape: 16 1 (16)
I1223 00:14:23.561713 25375 net.cpp:137] Memory required for data: 4278386816
I1223 00:14:23.561717 25375 layer_factory.hpp:77] Creating layer reshape-cm_reshape-cm_0_split
I1223 00:14:23.561723 25375 net.cpp:84] Creating Layer reshape-cm_reshape-cm_0_split
I1223 00:14:23.561727 25375 net.cpp:406] reshape-cm_reshape-cm_0_split <- reshape-cm
I1223 00:14:23.561733 25375 net.cpp:380] reshape-cm_reshape-cm_0_split -> reshape-cm_reshape-cm_0_split_0
I1223 00:14:23.561738 25375 net.cpp:380] reshape-cm_reshape-cm_0_split -> reshape-cm_reshape-cm_0_split_1
I1223 00:14:23.561744 25375 net.cpp:380] reshape-cm_reshape-cm_0_split -> reshape-cm_reshape-cm_0_split_2
I1223 00:14:23.561749 25375 net.cpp:380] reshape-cm_reshape-cm_0_split -> reshape-cm_reshape-cm_0_split_3
I1223 00:14:23.561810 25375 net.cpp:122] Setting up reshape-cm_reshape-cm_0_split
I1223 00:14:23.561816 25375 net.cpp:129] Top shape: 16 1 (16)
I1223 00:14:23.561820 25375 net.cpp:129] Top shape: 16 1 (16)
I1223 00:14:23.561823 25375 net.cpp:129] Top shape: 16 1 (16)
I1223 00:14:23.561826 25375 net.cpp:129] Top shape: 16 1 (16)
I1223 00:14:23.561828 25375 net.cpp:137] Memory required for data: 4278387072
I1223 00:14:23.561833 25375 layer_factory.hpp:77] Creating layer reshape-data
I1223 00:14:23.561837 25375 net.cpp:84] Creating Layer reshape-data
I1223 00:14:23.561841 25375 net.cpp:406] reshape-data <- relu6
I1223 00:14:23.561847 25375 net.cpp:380] reshape-data -> conv6-reshape
I1223 00:14:23.561869 25375 net.cpp:122] Setting up reshape-data
I1223 00:14:23.561875 25375 net.cpp:129] Top shape: 16 1 1 32 32 (16384)
I1223 00:14:23.561878 25375 net.cpp:137] Memory required for data: 4278452608
I1223 00:14:23.561894 25375 layer_factory.hpp:77] Creating layer conv6-reshape_reshape-data_0_split
I1223 00:14:23.561898 25375 net.cpp:84] Creating Layer conv6-reshape_reshape-data_0_split
I1223 00:14:23.561902 25375 net.cpp:406] conv6-reshape_reshape-data_0_split <- conv6-reshape
I1223 00:14:23.561908 25375 net.cpp:380] conv6-reshape_reshape-data_0_split -> conv6-reshape_reshape-data_0_split_0
I1223 00:14:23.561914 25375 net.cpp:380] conv6-reshape_reshape-data_0_split -> conv6-reshape_reshape-data_0_split_1
I1223 00:14:23.561920 25375 net.cpp:380] conv6-reshape_reshape-data_0_split -> conv6-reshape_reshape-data_0_split_2
I1223 00:14:23.561939 25375 net.cpp:380] conv6-reshape_reshape-data_0_split -> conv6-reshape_reshape-data_0_split_3
I1223 00:14:23.562010 25375 net.cpp:122] Setting up conv6-reshape_reshape-data_0_split
I1223 00:14:23.562016 25375 net.cpp:129] Top shape: 16 1 1 32 32 (16384)
I1223 00:14:23.562021 25375 net.cpp:129] Top shape: 16 1 1 32 32 (16384)
I1223 00:14:23.562024 25375 net.cpp:129] Top shape: 16 1 1 32 32 (16384)
I1223 00:14:23.562028 25375 net.cpp:129] Top shape: 16 1 1 32 32 (16384)
I1223 00:14:23.562031 25375 net.cpp:137] Memory required for data: 4278714752
I1223 00:14:23.562036 25375 layer_factory.hpp:77] Creating layer dummy
I1223 00:14:23.562041 25375 net.cpp:84] Creating Layer dummy
I1223 00:14:23.562045 25375 net.cpp:380] dummy -> dummy
I1223 00:14:23.562101 25375 net.cpp:122] Setting up dummy
I1223 00:14:23.562109 25375 net.cpp:129] Top shape: 1 1 32 32 32 (32768)
I1223 00:14:23.562111 25375 net.cpp:137] Memory required for data: 4278845824
I1223 00:14:23.562114 25375 layer_factory.hpp:77] Creating layer dummy_dummy_0_split
I1223 00:14:23.562134 25375 net.cpp:84] Creating Layer dummy_dummy_0_split
I1223 00:14:23.562136 25375 net.cpp:406] dummy_dummy_0_split <- dummy
I1223 00:14:23.562142 25375 net.cpp:380] dummy_dummy_0_split -> dummy_dummy_0_split_0
I1223 00:14:23.562150 25375 net.cpp:380] dummy_dummy_0_split -> dummy_dummy_0_split_1
I1223 00:14:23.562155 25375 net.cpp:380] dummy_dummy_0_split -> dummy_dummy_0_split_2
I1223 00:14:23.562161 25375 net.cpp:380] dummy_dummy_0_split -> dummy_dummy_0_split_3
I1223 00:14:23.562168 25375 net.cpp:380] dummy_dummy_0_split -> dummy_dummy_0_split_4
I1223 00:14:23.562175 25375 net.cpp:380] dummy_dummy_0_split -> dummy_dummy_0_split_5
I1223 00:14:23.562180 25375 net.cpp:380] dummy_dummy_0_split -> dummy_dummy_0_split_6
I1223 00:14:23.562186 25375 net.cpp:380] dummy_dummy_0_split -> dummy_dummy_0_split_7
I1223 00:14:23.562295 25375 net.cpp:122] Setting up dummy_dummy_0_split
I1223 00:14:23.562302 25375 net.cpp:129] Top shape: 1 1 32 32 32 (32768)
I1223 00:14:23.562306 25375 net.cpp:129] Top shape: 1 1 32 32 32 (32768)
I1223 00:14:23.562309 25375 net.cpp:129] Top shape: 1 1 32 32 32 (32768)
I1223 00:14:23.562312 25375 net.cpp:129] Top shape: 1 1 32 32 32 (32768)
I1223 00:14:23.562315 25375 net.cpp:129] Top shape: 1 1 32 32 32 (32768)
I1223 00:14:23.562319 25375 net.cpp:129] Top shape: 1 1 32 32 32 (32768)
I1223 00:14:23.562322 25375 net.cpp:129] Top shape: 1 1 32 32 32 (32768)
I1223 00:14:23.562326 25375 net.cpp:129] Top shape: 1 1 32 32 32 (32768)
I1223 00:14:23.562342 25375 net.cpp:137] Memory required for data: 4279894400
I1223 00:14:23.562345 25375 layer_factory.hpp:77] Creating layer encode1
I1223 00:14:23.562355 25375 net.cpp:84] Creating Layer encode1
I1223 00:14:23.562358 25375 net.cpp:406] encode1 <- conv6-reshape_reshape-data_0_split_0
I1223 00:14:23.562362 25375 net.cpp:406] encode1 <- reshape-cm_reshape-cm_0_split_0
…
Unrolling T=11
Building ConvLSTMUnit layer
Unrolling T=12
Building ConvLSTMUnit layer
Unrolling T=13
Building ConvLSTMUnit layer
Unrolling T=14
Building ConvLSTMUnit layer
Unrolling T=15
Building ConvLSTMUnit layer
Unrolling T=16
Building ConvLSTMUnit layer
I1223 00:14:23.563980 25375 net.cpp:51] Initializing net from parameters: 
layer {
  name: "encode1_"
  type: "Input"
  top: "x"
  top: "cont"
  input_param {
    shape {
      dim: 16
      dim: 1
      dim: 1
      dim: 32
      dim: 32
    }
    shape {
      dim: 16
      dim: 1
    }
  }
}
layer {
  name: "encode1_x->transform"
  type: "Convolution"
  bottom: "x"
  top: "x->transform"
  param {
    name: "x_transform"
  }
  propagate_down: true
  convolution_param {
    num_output: 128
    bias_term: false
    pad: 1
    kernel_size: 3
    group: 1
    weight_filler {
      type: "uniform"
      min: -0.0297
      max: 0.0297
    }
    bias_filler {
      type: "constant"
      value: 0
    }
    engine: DEFAULT
    axis: 2
    force_nd_im2col: false
  }
}
layer {
  name: "encode1_input->cell_hidden"
  type: "Input"
  top: "c_t=0"
  top: "h_t=0"
  input_param {
    shape {
      dim: 1
      dim: 1
      dim: 32
      dim: 32
      dim: 32
    }
    shape {
      dim: 1
      dim: 1
      dim: 32
      dim: 32
      dim: 32
    }
  }
}
layer {
  name: "encode1_W_xc_x_slice"
  type: "Slice"
  bottom: "x->transform"
  top: "x->transform->t=1"
  top: "x->transform->t=2"
  top: "x->transform->t=3"
  top: "x->transform->t=4"
  top: "x->transform->t=5"
  top: "x->transform->t=6"
  top: "x->transform->t=7"
  top: "x->transform->t=8"
  top: "x->transform->t=9"
  top: "x->transform->t=10"
  top: "x->transform->t=11"
  top: "x->transform->t=12"
  top: "x->transform->t=13"
  top: "x->transform->t=14"
  top: "x->transform->t=15"
  top: "x->transform->t=16"
  slice_param {
    axis: 0
  }
}
layer {
  name: "encode1_cont_slice"
  type: "Slice"
  bottom: "cont"
  top: "cont_t=1"
  top: "cont_t=2"
  top: "cont_t=3"
  top: "cont_t=4"
  top: "cont_t=5"
  top: "cont_t=6"
  top: "cont_t=7"
  top: "cont_t=8"
  top: "cont_t=9"
  top: "cont_t=10"
  top: "cont_t=11"
  top: "cont_t=12"
  top: "cont_t=13"
  top: "cont_t=14"
  top: "cont_t=15"
  top: "cont_t=16"
  slice_param {
    axis: 0
  }
}
layer {
  name: "encode1_dummy_forward_c0"
  type: "DummyForward"
  bottom: "c_t=0"
  top: "c_t=0"
  propagate_down: true
}
layer {
  name: "encode1_dummy_forward_h0"
  type: "DummyForward"
  bottom: "h_t=0"
  top: "h_t=0"
  propagate_down: true
}
layer {
  name: "encode1_h_conted_t=0"
  type: "Scale"
  bottom: "h_t=0"
  bottom: "cont_t=1"
  top: "h_conted_t=0"
  scale_param {
    axis: 0
  }
}
layer {
  name: "encode1_hidden->transform->0"
  type: "Convolution"
  bottom: "h_conted_t=0"
  top: "hidden->transform->0"
  param {
    name: "h->transform"
  }
  param {
    name: "h->transform_bias"
  }
  propagate_down: true
  convolution_param {
    num_output: 128
    bias_term: true
    pad: 1
    kernel_size: 3
    group: 1
    weight_filler {
      type: "uniform"
      min: -0.0297
      max: 0.0297
    }
    bias_filler {
      type: "constant"
      value: 0
    }
    engine: DEFAULT
    axis: 2
    force_nd_im2col: false
  }
}
layer {
  name: "encode1_hadamard->input_t=0"
  type: "Scale"
  bottom: "c_t=0"
  top: "hadamard_in_t=1"
  param {
    name: "hadamard.input"
  }
  scale_param {
    axis: 3
    num_axes: 2
  }
}
layer {
  name: "encode1_hadamard->forget_t=0"
  type: "Scale"
  bottom: "c_t=0"
  top: "hadamard_fog_t=1"
  param {
    name: "hadamard.forget"
  }
  scale_param {
    axis: 3
    num_axes: 2
  }
}
layer {
  name: "encode1_hadamard->output_t=0"
  type: "Scale"
  bottom: "c_t=0"
  top: "hadamard_out_t=1"
  param {
    name: "hadamard.output"
  }
  scale_param {
    axis: 3
    num_axes: 2
  }
}
layer {
  name: "encode1_hadamard_gat_t=1"
  type: "DummyData"
  top: "hadamard_gat_t=1"
  dummy_data_param {
    shape {
      dim: 1
      dim: 1
      dim: 32
      dim: 32
      dim: 32
    }
  }
}
layer {
  name: "encode1_concat_hadamard_t=1"
  type: "Concat"
  bottom: "hadamard_in_t=1"
  bottom: "hadamard_fog_t=1"
  bottom: "hadamard_out_t=1"
  bottom: "hadamard_gat_t=1"
  top: "hadamard_t=1"
  concat_param {
    axis: 2
  }
}
layer {
  name: "encode1_gate_input_1"
  type: "Eltwise"
  bottom: "hidden->transform->0"
  bottom: "x->transform->t=1"
  bottom: "hadamard_t=1"
  top: "gate_input_1"
  eltwise_param {
    operation: SUM
  }
}
layer {
  name: "encode1_unit_t=1"
  type: "ConvLSTMUnit"
  bottom: "c_t=0"
  bottom: "gate_input_1"
  bottom: "cont_t=1"
  top: "c_t=1"
  top: "h_t=1"
}
layer {
  name: "encode1_h_conted_t=1"
  type: "Scale"
  bottom: "h_t=1"
  bottom: "cont_t=2"
  top: "h_conted_t=1"
  scale_param {
    axis: 0
  }
}
layer {
  name: "encode1_hidden->transform->1"
  type: "Convolution"
  bottom: "h_conted_t=1"
  top: "hidden->transform->1"
  param {
    name: "h->transform"
  }
  param {
    name: "h->transform_bias"
  }
  propagate_down: true
  convolution_param {
    num_output: 128
    bias_term: true
    pad: 1
    kernel_size: 3
    group: 1
    weight_filler {
      type: "uniform"
      min: -0.0297
      max: 0.0297
    }
    bias_filler {
      type: "constant"
      value: 0
    }
    engine: DEFAULT
    axis: 2
    force_nd_im2col: false
  }
}
layer {
  name: "encode1_hadamard->input_t=1"
  type: "Scale"
  bottom: "c_t=1"
  top: "hadamard_in_t=2"
  param {
    name: "hadamard.input"
  }
  scale_param {
    axis: 3
    num_axes: 2
  }
}
layer {
  name: "encode1_hadamard->forget_t=1"
  type: "Scale"
  bottom: "c_t=1"
  top: "hadamard_fog_t=2"
  param {
    name: "hadamard.forget"
  }
  scale_param {
    axis: 3
    num_axes: 2
  }
}
layer {
  name: "encode1_hadamard->output_t=1"
  type: "Scale"
  bottom: "c_t=1"
  top: "hadamard_out_t=2"
  param {
    name: "hadamard.output"
  }
  scale_param {
    axis: 3
    num_axes: 2
  }
}
layer {
  name: "encode1_hadamard_gat_t=2"
  type: "DummyData"
  top: "hadamard_gat_t=2"
  dummy_data_param {
    shape {
      dim: 1
      dim: 1
      dim: 32
      dim: 32
      dim: 32
    }
  }
}
layer {
  name: "encode1_concat_hadamard_t=2"
  type: "Concat"
  bottom: "hadamard_in_t=2"
  bottom: "hadamard_fog_t=2"
  bottom: "hadamard_out_t=2"
  bottom: "hadamard_gat_t=2"
  top: "hadamard_t=2"
  concat_param {
    axis: 2
  }
}
layer {
  name: "encode1_gate_input_2"
  type: "Eltwise"
  bottom: "hidden->transform->1"
  bottom: "x->transform->t=2"
  bottom: "hadamard_t=2"
  top: "gate_input_2"
  eltwise_param {
    operation: SUM
  }
}
layer {
  name: "encode1_unit_t=2"
  type: "ConvLSTMUnit"
  bottom: "c_t=1"
  bottom: "gate_input_2"
  bottom: "cont_t=2"
  top: "c_t=2"
  top: "h_t=2"
}
layer {
  name: "encode1_h_conted_t=2"
  type: "Scale"
  bottom: "h_t=2"
  bottom: "cont_t=3"
  top: "h_conted_t=2"
  scale_param {
    axis: 0
  }
}
layer {
  name: "encode1_hidden->transform->2"
  type: "Convolution"
  bottom: "h_conted_t=2"
  top: "hidden->transform->2"
  param {
    name: "h->transform"
  }
  param {
    name: "h->transform_bias"
  }
  propagate_down: true
  convolution_param {
    num_output: 128
    bias_term: true
    pad: 1
    kernel_size: 3
    group: 1
    weight_filler {
      type: "uniform"
      min: -0.0297
      max: 0.0297
    }
    bias_filler {
      type: "constant"
      value: 0
    }
    engine: DEFAULT
    axis: 2
    force_nd_im2col: false
  }
}
layer {
  name: "encode1_hadamard->input_t=2"
  type: "Scale"
  bottom: "c_t=2"
  top: "hadamard_in_t=3"
  param {
    name: "hadamard.input"
  }
  scale_param {
    axis: 3
    num_axes: 2
  }
}
layer {
  name: "encode1_hadamard->forget_t=2"
  type: "Scale"
  bottom: "c_t=2"
  top: "hadamard_fog_t=3"
  param {
    name: "hadamard.forget"
  }
  scale_param {
    axis: 3
    num_axes: 2
  }
}
layer {
  name: "encode1_hadamard->output_t=2"
  type: "Scale"
  bottom: "c_t=2"
  top: "hadamard_out_t=3"
  param {
    name: "hadamard.output"
  }
  scale_param {
    axis: 3
    num_axes: 2
  }
}
layer {
  name: "encode1_hadamard_gat_t=3"
  type: "DummyData"
  top: "hadamard_gat_t=3"
  dummy_data_param {
    shape {
      dim: 1
      dim: 1
      dim: 32
      dim: 32
      dim: 32
    }
  }
}
layer {
  name: "encode1_concat_hadamard_t=3"
  type: "Concat"
  bottom: "hadamard_in_t=3"
  bottom: "hadamard_fog_t=3"
  bottom: "hadamard_out_t=3"
  bottom: "hadamard_gat_t=3"
  top: "hadamard_t=3"
  concat_param {
    axis: 2
  }
}
layer {
  name: "encode1_gate_input_3"
  type: "Eltwise"
  bottom: "hidden->transform->2"
  bottom: "x->transform->t=3"
  bottom: "hadamard_t=3"
  top: "gate_input_3"
  eltwise_param {
    operation: SUM
  }
}
layer {
  name: "encode1_unit_t=3"
  type: "ConvLSTMUnit"
  bottom: "c_t=2"
  bottom: "gate_input_3"
  bottom: "cont_t=3"
  top: "c_t=3"
  top: "h_t=3"
}
layer {
  name: "encode1_h_conted_t=3"
  type: "Scale"
  bottom: "h_t=3"
  bottom: "cont_t=4"
  top: "h_conted_t=3"
  scale_param {
    axis: 0
  }
}
layer {
  name: "encode1_hidden->transform->3"
  type: "Convolution"
  bottom: "h_conted_t=3"
  top: "hidden->transform->3"
  param {
    name: "h->transform"
  }
  param {
    name: "h->transform_bias"
  }
  propagate_down: true
  convolution_param {
    num_output: 128
    bias_term: true
    pad: 1
    kernel_size: 3
    group: 1
    weight_filler {
      type: "uniform"
      min: -0.0297
      max: 0.0297
    }
    bias_filler {
      type: "constant"
      value: 0
    }
    engine: DEFAULT
    axis: 2
    force_nd_im2col: false
  }
}
layer {
  name: "encode1_hadamard->input_t=3"
  type: "Scale"
  bottom: "c_t=3"
  top: "hadamard_in_t=4"
  param {
    name: "hadamard.input"
  }
  scale_param {
    axis: 3
    num_axes: 2
  }
}
layer {
  name: "encode1_hadamard->forget_t=3"
  type: "Scale"
  bottom: "c_t=3"
  top: "hadamard_fog_t=4"
  param {
    name: "hadamard.forget"
  }
  scale_param {
    axis: 3
    num_axes: 2
  }
}
layer {
  name: "encode1_hadamard->output_t=3"
  type: "Scale"
  bottom: "c_t=3"
  top: "hadamard_out_t=4"
  param {
    name: "hadamard.output"
  }
  scale_param {
    axis: 3
    num_axes: 2
  }
}
layer {
  name: "encode1_hadamard_gat_t=4"
  type: "DummyData"
  top: "hadamard_gat_t=4"
  dummy_data_param {
    shape {
      dim: 1
      dim: 1
      dim: 32
      dim: 32
      dim: 32
    }
  }
}
layer {
  name: "encode1_concat_hadamard_t=4"
  type: "Concat"
  bottom: "hadamard_in_t=4"
  bottom: "hadamard_fog_t=4"
  bottom: "hadamard_out_t=4"
  bottom: "hadamard_gat_t=4"
  top: "hadamard_t=4"
  concat_param {
    axis: 2
  }
}
layer {
  name: "encode1_gate_input_4"
  type: "Eltwise"
  bottom: "hidden->transform->3"
  bottom: "x->transform->t=4"
  bottom: "hadamard_t=4"
  top: "gate_input_4"
  eltwise_param {
    operation: SUM
  }
}
layer {
  name: "encode1_unit_t=4"
  type: "ConvLSTMUnit"
  bottom: "c_t=3"
  bottom: "gate_input_4"
  bottom: "cont_t=4"
  top: "c_t=4"
  top: "h_t=4"
}
layer {
  name: "encode1_h_conted_t=4"
  type: "Scale"
  bottom: "h_t=4"
  bottom: "cont_t=5"
  top: "h_conted_t=4"
  scale_param {
    axis: 0
  }
}
layer {
  name: "encode1_hidden->transform->4"
  type: "Convolution"
  bottom: "h_conted_t=4"
  top: "hidden->transform->4"
  param {
    name: "h->transform"
  }
  param {
    name: "h->transform_bias"
  }
  propagate_down: true
  convolution_param {
    num_output: 128
    bias_term: true
    pad: 1
    kernel_size: 3
    group: 1
    weight_filler {
      type: "uniform"
      min: -0.0297
      max: 0.0297
    }
    bias_filler {
      type: "constant"
      value: 0
    }
    engine: DEFAULT
    axis: 2
    force_nd_im2col: false
  }
}
layer {
  name: "encode1_hadamard->input_t=4"
  type: "Scale"
  bottom: "c_t=4"
  top: "hadamard_in_t=5"
  param {
    name: "hadamard.input"
  }
  scale_param {
    axis: 3
    num_axes: 2
  }
}
layer {
  name: "encode1_hadamard->forget_t=4"
  type: "Scale"
  bottom: "c_t=4"
  top: "hadamard_fog_t=5"
  param {
    name: "hadamard.forget"
  }
  scale_param {
    axis: 3
    num_axes: 2
  }
}
layer {
  name: "encode1_hadamard->output_t=4"
  type: "Scale"
  bottom: "c_t=4"
  top: "hadamard_out_t=5"
  param {
    name: "hadamard.output"
  }
  scale_param {
    axis: 3
    num_axes: 2
  }
}
layer {
  name: "encode1_hadamard_gat_t=5"
  type: "DummyData"
  top: "hadamard_gat_t=5"
  dummy_data_param {
    shape {
      dim: 1
      dim: 1
      dim: 32
      dim: 32
      dim: 32
    }
  }
}
layer {
  name: "encode1_concat_hadamard_t=5"
  type: "Concat"
  bottom: "hadamard_in_t=5"
  bottom: "hadamard_fog_t=5"
  bottom: "hadamard_out_t=5"
  bottom: "hadamard_gat_t=5"
  top: "hadamard_t=5"
  concat_param {
    axis: 2
  }
}
layer {
  name: "encode1_gate_input_5"
  type: "Eltwise"
  bottom: "hidden->transform->4"
  bottom: "x->transform->t=5"
  bottom: "hadamard_t=5"
  top: "gate_input_5"
  eltwise_param {
    operation: SUM
  }
}
layer {
  name: "encode1_unit_t=5"
  type: "ConvLSTMUnit"
  bottom: "c_t=4"
  bottom: "gate_input_5"
  bottom: "cont_t=5"
  top: "c_t=5"
  top: "h_t=5"
}
layer {
  name: "encode1_h_conted_t=5"
  type: "Scale"
  bottom: "h_t=5"
  bottom: "cont_t=6"
  top: "h_conted_t=5"
  scale_param {
    axis: 0
  }
}
layer {
  name: "encode1_hidden->transform->5"
  type: "Convolution"
  bottom: "h_conted_t=5"
  top: "hidden->transform->5"
  param {
    name: "h->transform"
  }
  param {
    name: "h->transform_bias"
  }
  propagate_down: true
  convolution_param {
    num_output: 128
    bias_term: true
    pad: 1
    kernel_size: 3
    group: 1
    weight_filler {
      type: "uniform"
      min: -0.0297
      max: 0.0297
    }
    bias_filler {
      type: "constant"
      value: 0
    }
    engine: DEFAULT
    axis: 2
    force_nd_im2col: false
  }
}
layer {
  name: "encode1_hadamard->input_t=5"
  type: "Scale"
  bottom: "c_t=5"
  top: "hadamard_in_t=6"
  param {
    name: "hadamard.input"
  }
  scale_param {
    axis: 3
    num_axes: 2
  }
}
layer {
  name: "encode1_hadamard->forget_t=5"
  type: "Scale"
  bottom: "c_t=5"
  top: "hadamard_fog_t=6"
  param {
    name: "hadamard.forget"
  }
  scale_param {
    axis: 3
    num_axes: 2
  }
}
layer {
  name: "encode1_hadamard->output_t=5"
  type: "Scale"
  bottom: "c_t=5"
  top: "hadamard_out_t=6"
  param {
    name: "hadamard.output"
  }
  scale_param {
    axis: 3
    num_axes: 2
  }
}
layer {
  name: "encode1_hadamard_gat_t=6"
  type: "DummyData"
  top: "hadamard_gat_t=6"
  dummy_data_param {
    shape {
      dim: 1
      dim: 1
      dim: 32
      dim: 32
      dim: 32
    }
  }
}
layer {
  name: "encode1_concat_hadamard_t=6"
  type: "Concat"
  bottom: "hadamard_in_t=6"
  bottom: "hadamard_fog_t=6"
  bottom: "hadamard_out_t=6"
  bottom: "hadamard_gat_t=6"
  top: "hadamard_t=6"
  concat_param {
    axis: 2
  }
}
layer {
  name: "encode1_gate_input_6"
  type: "Eltwise"
  bottom: "hidden->transform->5"
  bottom: "x->transform->t=6"
  bottom: "hadamard_t=6"
  top: "gate_input_6"
  eltwise_param {
    operation: SUM
  }
}
layer {
  name: "encode1_unit_t=6"
  type: "ConvLSTMUnit"
  bottom: "c_t=5"
  bottom: "gate_input_6"
  bottom: "cont_t=6"
  top: "c_t=6"
  top: "h_t=6"
}
layer {
  name: "encode1_h_conted_t=6"
  type: "Scale"
  bottom: "h_t=6"
  bottom: "cont_t=7"
  top: "h_conted_t=6"
  scale_param {
    axis: 0
  }
}
layer {
  name: "encode1_hidden->transform->6"
  type: "Convolution"
  bottom: "h_conted_t=6"
  top: "hidden->transform->6"
  param {
    name: "h->transform"
  }
  param {
    name: "h->transform_bias"
  }
  propagate_down: true
  convolution_param {
    num_output: 128
    bias_term: true
    pad: 1
    kernel_size: 3
    group: 1
    weight_filler {
      type: "uniform"
      min: -0.0297
      max: 0.0297
    }
    bias_filler {
      type: "constant"
      value: 0
    }
    engine: DEFAULT
    axis: 2
    force_nd_im2col: false
  }
}
layer {
  name: "encode1_hadamard->input_t=6"
  type: "Scale"
  bottom: "c_t=6"
  top: "hadamard_in_t=7"
  param {
    name: "hadamard.input"
  }
  scale_param {
    axis: 3
    num_axes: 2
  }
}
layer {
  name: "encode1_hadamard->forget_t=6"
  type: "Scale"
  bottom: "c_t=6"
  top: "hadamard_fog_t=7"
  param {
    name: "hadamard.forget"
  }
  scale_param {
    axis: 3
    num_axes: 2
  }
}
layer {
  name: "encode1_hadamard->output_t=6"
  type: "Scale"
  bottom: "c_t=6"
  top: "hadamard_out_t=7"
  param {
    name: "hadamard.output"
  }
  scale_param {
    axis: 3
    num_axes: 2
  }
}
layer {
  name: "encode1_hadamard_gat_t=7"
  type: "DummyData"
  top: "hadamard_gat_t=7"
  dummy_data_param {
    shape {
      dim: 1
      dim: 1
      dim: 32
      dim: 32
      dim: 32
    }
  }
}
layer {
  name: "encode1_concat_hadamard_t=7"
  type: "Concat"
  bottom: "hadamard_in_t=7"
  bottom: "hadamard_fog_t=7"
  bottom: "hadamard_out_t=7"
  bottom: "hadamard_gat_t=7"
  top: "hadamard_t=7"
  concat_param {
    axis: 2
  }
}
layer {
  name: "encode1_gate_input_7"
  type: "Eltwise"
  bottom: "hidden->transform->6"
  bottom: "x->transform->t=7"
  bottom: "hadamard_t=7"
  top: "gate_input_7"
  eltwise_param {
    operation: SUM
  }
}
layer {
  name: "encode1_unit_t=7"
  type: "ConvLSTMUnit"
  bottom: "c_t=6"
  bottom: "gate_input_7"
  bottom: "cont_t=7"
  top: "c_t=7"
  top: "h_t=7"
}
layer {
  name: "encode1_h_conted_t=7"
  type: "Scale"
  bottom: "h_t=7"
  bottom: "cont_t=8"
  top: "h_conted_t=7"
  scale_param {
    axis: 0
  }
}
layer {
  name: "encode1_hidden->transform->7"
  type: "Convolution"
  bottom: "h_conted_t=7"
  top: "hidden->transform->7"
  param {
    name: "h->transform"
  }
  param {
    name: "h->transform_bias"
  }
  propagate_down: true
  convolution_param {
    num_output: 128
    bias_term: true
    pad: 1
    kernel_size: 3
    group: 1
    weight_filler {
      type: "uniform"
      min: -0.0297
      max: 0.0297
    }
    bias_filler {
      type: "constant"
      value: 0
    }
    engine: DEFAULT
    axis: 2
    force_nd_im2col: false
  }
}
layer {
  name: "encode1_hadamard->input_t=7"
  type: "Scale"
  bottom: "c_t=7"
  top: "hadamard_in_t=8"
  param {
    name: "hadamard.input"
  }
  scale_param {
    axis: 3
    num_axes: 2
  }
}
layer {
  name: "encode1_hadamard->forget_t=7"
  type: "Scale"
  bottom: "c_t=7"
  top: "hadamard_fog_t=8"
  param {
    name: "hadamard.forget"
  }
  scale_param {
    axis: 3
    num_axes: 2
  }
}
layer {
  name: "encode1_hadamard->output_t=7"
  type: "Scale"
  bottom: "c_t=7"
  top: "hadamard_out_t=8"
  param {
    name: "hadamard.output"
  }
  scale_param {
    axis: 3
    num_axes: 2
  }
}
layer {
  name: "encode1_hadamard_gat_t=8"
  type: "DummyData"
  top: "hadamard_gat_t=8"
  dummy_data_param {
    shape {
      dim: 1
      dim: 1
      dim: 32
      dim: 32
      dim: 32
    }
  }
}
layer {
  name: "encode1_concat_hadamard_t=8"
  type: "Concat"
  bottom: "hadamard_in_t=8"
  bottom: "hadamard_fog_t=8"
  bottom: "hadamard_out_t=8"
  bottom: "hadamard_gat_t=8"
  top: "hadamard_t=8"
  concat_param {
    axis: 2
  }
}
layer {
  name: "encode1_gate_input_8"
  type: "Eltwise"
  bottom: "hidden->transform->7"
  bottom: "x->transform->t=8"
  bottom: "hadamard_t=8"
  top: "gate_input_8"
  eltwise_param {
    operation: SUM
  }
}
layer {
  name: "encode1_unit_t=8"
  type: "ConvLSTMUnit"
  bottom: "c_t=7"
  bottom: "gate_input_8"
  bottom: "cont_t=8"
  top: "c_t=8"
  top: "h_t=8"
}
layer {
  name: "encode1_h_conted_t=8"
  type: "Scale"
  bottom: "h_t=8"
  bottom: "cont_t=9"
  top: "h_conted_t=8"
  scale_param {
    axis: 0
  }
}
layer {
  name: "encode1_hidden->transform->8"
  type: "Convolution"
  bottom: "h_conted_t=8"
  top: "hidden->transform->8"
  param {
    name: "h->transform"
  }
  param {
    name: "h->transform_bias"
  }
  propagate_down: true
  convolution_param {
    num_output: 128
    bias_term: true
    pad: 1
    kernel_size: 3
    group: 1
    weight_filler {
      type: "uniform"
      min: -0.0297
      max: 0.0297
    }
    bias_filler {
      type: "constant"
      value: 0
    }
    engine: DEFAULT
    axis: 2
    force_nd_im2col: false
  }
}
layer {
  name: "encode1_hadamard->input_t=8"
  type: "Scale"
  bottom: "c_t=8"
  top: "hadamard_in_t=9"
  param {
    name: "hadamard.input"
  }
  scale_param {
    axis: 3
    num_axes: 2
  }
}
layer {
  name: "encode1_hadamard->forget_t=8"
  type: "Scale"
  bottom: "c_t=8"
  top: "hadamard_fog_t=9"
  param {
    name: "hadamard.forget"
  }
  scale_param {
    axis: 3
    num_axes: 2
  }
}
layer {
  name: "encode1_hadamard->output_t=8"
  type: "Scale"
  bottom: "c_t=8"
  top: "hadamard_out_t=9"
  param {
    name: "hadamard.output"
  }
  scale_param {
    axis: 3
    num_axes: 2
  }
}
layer {
  name: "encode1_hadamard_gat_t=9"
  type: "DummyData"
  top: "hadamard_gat_t=9"
  dummy_data_param {
    shape {
      dim: 1
      dim: 1
      dim: 32
      dim: 32
      dim: 32
    }
  }
}
layer {
  name: "encode1_concat_hadamard_t=9"
  type: "Concat"
  bottom: "hadamard_in_t=9"
  bottom: "hadamard_fog_t=9"
  bottom: "hadamard_out_t=9"
  bottom: "hadamard_gat_t=9"
  top: "hadamard_t=9"
  concat_param {
    axis: 2
  }
}
layer {
  name: "encode1_gate_input_9"
  type: "Eltwise"
  bottom: "hidden->transform->8"
  bottom: "x->transform->t=9"
  bottom: "hadamard_t=9"
  top: "gate_input_9"
  eltwise_param {
    operation: SUM
  }
}
layer {
  name: "encode1_unit_t=9"
  type: "ConvLSTMUnit"
  bottom: "c_t=8"
  bottom: "gate_input_9"
  bottom: "cont_t=9"
  top: "c_t=9"
  top: "h_t=9"
}
layer {
  name: "encode1_h_conted_t=9"
  type: "Scale"
  bottom: "h_t=9"
  bottom: "cont_t=10"
  top: "h_conted_t=9"
  scale_param {
    axis: 0
  }
}
layer {
  name: "encode1_hidden->transform->9"
  type: "Convolution"
  bottom: "h_conted_t=9"
  top: "hidden->transform->9"
  param {
    name: "h->transform"
  }
  param {
    name: "h->transform_bias"
  }
  propagate_down: true
  convolution_param {
    num_output: 128
    bias_term: true
    pad: 1
    kernel_size: 3
    group: 1
    weight_filler {
      type: "uniform"
      min: -0.0297
      max: 0.0297
    }
    bias_filler {
      type: "constant"
      value: 0
    }
    engine: DEFAULT
    axis: 2
    force_nd_im2col: false
  }
}
layer {
  name: "encode1_hadamard->input_t=9"
  type: "Scale"
  bottom: "c_t=9"
  top: "hadamard_in_t=10"
  param {
    name: "hadamard.input"
  }
  scale_param {
    axis: 3
    num_axes: 2
  }
}
layer {
  name: "encode1_hadamard->forget_t=9"
  type: "Scale"
  bottom: "c_t=9"
  top: "hadamard_fog_t=10"
  param {
    name: "hadamard.forget"
  }
  scale_param {
    axis: 3
    num_axes: 2
  }
}
layer {
  name: "encode1_hadamard->output_t=9"
  type: "Scale"
  bottom: "c_t=9"
  top: "hadamard_out_t=10"
  param {
    name: "hadamard.output"
  }
  scale_param {
    axis: 3
    num_axes: 2
  }
}
layer {
  name: "encode1_hadamard_gat_t=10"
  type: "DummyData"
  top: "hadamard_gat_t=10"
  dummy_data_param {
    shape {
      dim: 1
      dim: 1
      dim: 32
      dim: 32
      dim: 32
    }
  }
}
layer {
  name: "encode1_concat_hadamard_t=10"
  type: "Concat"
  bottom: "hadamard_in_t=10"
  bottom: "hadamard_fog_t=10"
  bottom: "hadamard_out_t=10"
  bottom: "hadamard_gat_t=10"
  top: "hadamard_t=10"
  concat_param {
    axis: 2
  }
}
layer {
  name: "encode1_gate_input_10"
  type: "Eltwise"
  bottom: "hidden->transform->9"
  bottom: "x->transform->t=10"
  bottom: "hadamard_t=10"
  top: "gate_input_10"
  eltwise_param {
    operation: SUM
  }
}
layer {
  name: "encode1_unit_t=10"
  type: "ConvLSTMUnit"
  bottom: "c_t=9"
  bottom: "gate_input_10"
  bottom: "cont_t=10"
  top: "c_t=10"
  top: "h_t=10"
}
layer {
  name: "encode1_h_conted_t=10"
  type: "Scale"
  bottom: "h_t=10"
  bottom: "cont_t=11"
  top: "h_conted_t=10"
  scale_param {
    axis: 0
  }
}
layer {
  name: "encode1_hidden->transform->10"
  type: "Convolution"
  bottom: "h_conted_t=10"
  top: "hidden->transform->10"
  param {
    name: "h->transform"
  }
  param {
    name: "h->transform_bias"
  }
  propagate_down: true
  convolution_param {
    num_output: 128
    bias_term: true
    pad: 1
    kernel_size: 3
    group: 1
    weight_filler {
      type: "uniform"
      min: -0.0297
      max: 0.0297
    }
    bias_filler {
      type: "constant"
      value: 0
    }
    engine: DEFAULT
    axis: 2
    force_nd_im2col: false
  }
}
layer {
  name: "encode1_hadamard->input_t=10"
  type: "Scale"
  bottom: "c_t=10"
  top: "hadamard_in_t=11"
  param {
    name: "hadamard.input"
  }
  scale_param {
    axis: 3
    num_axes: 2
  }
}
layer {
  name: "encode1_hadamard->forget_t=10"
  type: "Scale"
  bottom: "c_t=10"
  top: "hadamard_fog_t=11"
  param {
    name: "hadamard.forget"
  }
  scale_param {
    axis: 3
    num_axes: 2
  }
}
layer {
  name: "encode1_hadamard->output_t=10"
  type: "Scale"
  bottom: "c_t=10"
  top: "hadamard_out_t=11"
  param {
    name: "hadamard.output"
  }
  scale_param {
    axis: 3
    num_axes: 2
  }
}
layer {
  name: "encode1_hadamard_gat_t=11"
  type: "DummyData"
  top: "hadamard_gat_t=11"
  dummy_data_param {
    shape {
      dim: 1
      dim: 1
      dim: 32
      dim: 32
      dim: 32
    }
  }
}
layer {
  name: "encode1_concat_hadamard_t=11"
  type: "Concat"
  bottom: "hadamard_in_t=11"
  bottom: "hadamard_fog_t=11"
  bottom: "hadamard_out_t=11"
  bottom: "hadamard_gat_t=11"
  top: "hadamard_t=11"
  concat_param {
    axis: 2
  }
}
layer {
  name: "encode1_gate_input_11"
  type: "Eltwise"
  bottom: "hidden->transform->10"
  bottom: "x->transform->t=11"
  bottom: "hadamard_t=11"
  top: "gate_input_11"
  eltwise_param {
    operation: SUM
  }
}
layer {
  name: "encode1_unit_t=11"
  type: "ConvLSTMUnit"
  bottom: "c_t=10"
  bottom: "gate_input_11"
  bottom: "cont_t=11"
  top: "c_t=11"
  top: "h_t=11"
}
layer {
  name: "encode1_h_conted_t=11"
  type: "Scale"
  bottom: "h_t=11"
  bottom: "cont_t=12"
  top: "h_conted_t=11"
  scale_param {
    axis: 0
  }
}
layer {
  name: "encode1_hidden->transform->11"
  type: "Convolution"
  bottom: "h_conted_t=11"
  top: "hidden->transform->11"
  param {
    name: "h->transform"
  }
  param {
    name: "h->transform_bias"
  }
  propagate_down: true
  convolution_param {
    num_output: 128
    bias_term: true
    pad: 1
    kernel_size: 3
    group: 1
    weight_filler {
      type: "uniform"
      min: -0.0297
      max: 0.0297
    }
    bias_filler {
      type: "constant"
      value: 0
    }
    engine: DEFAULT
    axis: 2
    force_nd_im2col: false
  }
}
layer {
  name: "encode1_hadamard->input_t=11"
  type: "Scale"
  bottom: "c_t=11"
  top: "hadamard_in_t=12"
  param {
    name: "hadamard.input"
  }
  scale_param {
    axis: 3
    num_axes: 2
  }
}
layer {
  name: "encode1_hadamard->forget_t=11"
  type: "Scale"
  bottom: "c_t=11"
  top: "hadamard_fog_t=12"
  param {
    name: "hadamard.forget"
  }
  scale_param {
    axis: 3
    num_axes: 2
  }
}
layer {
  name: "encode1_hadamard->output_t=11"
  type: "Scale"
  bottom: "c_t=11"
  top: "hadamard_out_t=12"
  param {
    name: "hadamard.output"
  }
  scale_param {
    axis: 3
    num_axes: 2
  }
}
layer {
  name: "encode1_hadamard_gat_t=12"
  type: "DummyData"
  top: "hadamard_gat_t=12"
  dummy_data_param {
    shape {
      dim: 1
      dim: 1
      dim: 32
      dim: 32
      dim: 32
    }
  }
}
layer {
  name: "encode1_concat_hadamard_t=12"
  type: "Concat"
  bottom: "hadamard_in_t=12"
  bottom: "hadamard_fog_t=12"
  bottom: "hadamard_out_t=12"
  bottom: "hadamard_gat_t=12"
  top: "hadamard_t=12"
  concat_param {
    axis: 2
  }
}
layer {
  name: "encode1_gate_input_12"
  type: "Eltwise"
  bottom: "hidden->transform->11"
  bottom: "x->transform->t=12"
  bottom: "hadamard_t=12"
  top: "gate_input_12"
  eltwise_param {
    operation: SUM
  }
}
layer {
  name: "encode1_unit_t=12"
  type: "ConvLSTMUnit"
  bottom: "c_t=11"
  bottom: "gate_input_12"
  bottom: "cont_t=12"
  top: "c_t=12"
  top: "h_t=12"
}
layer {
  name: "encode1_h_conted_t=12"
  type: "Scale"
  bottom: "h_t=12"
  bottom: "cont_t=13"
  top: "h_conted_t=12"
  scale_param {
    axis: 0
  }
}
layer {
  name: "encode1_hidden->transform->12"
  type: "Convolution"
  bottom: "h_conted_t=12"
  top: "hidden->transform->12"
  param {
    name: "h->transform"
  }
  param {
    name: "h->transform_bias"
  }
  propagate_down: true
  convolution_param {
    num_output: 128
    bias_term: true
    pad: 1
    kernel_size: 3
    group: 1
    weight_filler {
      type: "uniform"
      min: -0.0297
      max: 0.0297
    }
    bias_filler {
      type: "constant"
      value: 0
    }
    engine: DEFAULT
    axis: 2
    force_nd_im2col: false
  }
}
layer {
  name: "encode1_hadamard->input_t=12"
  type: "Scale"
  bottom: "c_t=12"
  top: "hadamard_in_t=13"
  param {
    name: "hadamard.input"
  }
  scale_param {
    axis: 3
    num_axes: 2
  }
}
layer {
  name: "encode1_hadamard->forget_t=12"
  type: "Scale"
  bottom: "c_t=12"
  top: "hadamard_fog_t=13"
  param {
    name: "hadamard.forget"
  }
  scale_param {
    axis: 3
    num_axes: 2
  }
}
layer {
  name: "encode1_hadamard->output_t=12"
  type: "Scale"
  bottom: "c_t=12"
  top: "hadamard_out_t=13"
  param {
    name: "hadamard.output"
  }
  scale_param {
    axis: 3
    num_axes: 2
  }
}
layer {
  name: "encode1_hadamard_gat_t=13"
  type: "DummyData"
  top: "hadamard_gat_t=13"
  dummy_data_param {
    shape {
      dim: 1
      dim: 1
      dim: 32
      dim: 32
      dim: 32
    }
  }
}
layer {
  name: "encode1_concat_hadamard_t=13"
  type: "Concat"
  bottom: "hadamard_in_t=13"
  bottom: "hadamard_fog_t=13"
  bottom: "hadamard_out_t=13"
  bottom: "hadamard_gat_t=13"
  top: "hadamard_t=13"
  concat_param {
    axis: 2
  }
}
layer {
  name: "encode1_gate_input_13"
  type: "Eltwise"
  bottom: "hidden->transform->12"
  bottom: "x->transform->t=13"
  bottom: "hadamard_t=13"
  top: "gate_input_13"
  eltwise_param {
    operation: SUM
  }
}
layer {
  name: "encode1_unit_t=13"
  type: "ConvLSTMUnit"
  bottom: "c_t=12"
  bottom: "gate_input_13"
  bottom: "cont_t=13"
  top: "c_t=13"
  top: "h_t=13"
}
layer {
  name: "encode1_h_conted_t=13"
  type: "Scale"
  bottom: "h_t=13"
  bottom: "cont_t=14"
  top: "h_conted_t=13"
  scale_param {
    axis: 0
  }
}
layer {
  name: "encode1_hidden->transform->13"
  type: "Convolution"
  bottom: "h_conted_t=13"
  top: "hidden->transform->13"
  param {
    name: "h->transform"
  }
  param {
    name: "h->transform_bias"
  }
  propagate_down: true
  convolution_param {
    num_ou
I1223 00:14:23.564966 25375 layer_factory.hpp:77] Creating layer encode1_
I1223 00:14:23.564977 25375 net.cpp:84] Creating Layer encode1_
I1223 00:14:23.564982 25375 net.cpp:380] encode1_ -> x
I1223 00:14:23.564992 25375 net.cpp:380] encode1_ -> cont
I1223 00:14:23.565035 25375 net.cpp:122] Setting up encode1_
I1223 00:14:23.565043 25375 net.cpp:129] Top shape: 16 1 1 32 32 (16384)
I1223 00:14:23.565047 25375 net.cpp:129] Top shape: 16 1 (16)
I1223 00:14:23.565050 25375 net.cpp:137] Memory required for data: 65600
I1223 00:14:23.565053 25375 layer_factory.hpp:77] Creating layer encode1_x->transform
I1223 00:14:23.565065 25375 net.cpp:84] Creating Layer encode1_x->transform
I1223 00:14:23.565073 25375 net.cpp:406] encode1_x->transform <- x
I1223 00:14:23.565079 25375 net.cpp:380] encode1_x->transform -> x->transform
I1223 00:14:23.565273 25375 net.cpp:122] Setting up encode1_x->transform
I1223 00:14:23.565281 25375 net.cpp:129] Top shape: 16 1 128 32 32 (2097152)
I1223 00:14:23.565284 25375 net.cpp:137] Memory required for data: 8454208
I1223 00:14:23.565289 25375 layer_factory.hpp:77] Creating layer encode1_input->cell_hidden
I1223 00:14:23.565294 25375 net.cpp:84] Creating Layer encode1_input->cell_hidden
I1223 00:14:23.565299 25375 net.cpp:380] encode1_input->cell_hidden -> c_t=0
I1223 00:14:23.565305 25375 net.cpp:380] encode1_input->cell_hidden -> h_t=0
I1223 00:14:23.565340 25375 net.cpp:122] Setting up encode1_input->cell_hidden
I1223 00:14:23.565347 25375 net.cpp:129] Top shape: 1 1 32 32 32 (32768)
I1223 00:14:23.565351 25375 net.cpp:129] Top shape: 1 1 32 32 32 (32768)
I1223 00:14:23.565354 25375 net.cpp:137] Memory required for data: 8716352
I1223 00:14:23.565357 25375 layer_factory.hpp:77] Creating layer encode1_W_xc_x_slice
I1223 00:14:23.565363 25375 net.cpp:84] Creating Layer encode1_W_xc_x_slice
I1223 00:14:23.565366 25375 net.cpp:406] encode1_W_xc_x_slice <- x->transform
I1223 00:14:23.565374 25375 net.cpp:380] encode1_W_xc_x_slice -> x->transform->t=1
…
I1223 00:14:23.565455 25375 net.cpp:380] encode1_W_xc_x_slice -> x->transform->t=11
I1223 00:14:23.565464 25375 net.cpp:380] encode1_W_xc_x_slice -> x->transform->t=12
I1223 00:14:23.565474 25375 net.cpp:380] encode1_W_xc_x_slice -> x->transform->t=13
I1223 00:14:23.565480 25375 net.cpp:380] encode1_W_xc_x_slice -> x->transform->t=14
I1223 00:14:23.565488 25375 net.cpp:380] encode1_W_xc_x_slice -> x->transform->t=15
I1223 00:14:23.565496 25375 net.cpp:380] encode1_W_xc_x_slice -> x->transform->t=16
I1223 00:14:23.565681 25375 net.cpp:122] Setting up encode1_W_xc_x_slice
I1223 00:14:23.565688 25375 net.cpp:129] Top shape: 1 1 128 32 32 (131072)
I1223 00:14:23.565692 25375 net.cpp:129] Top shape: 1 1 128 32 32 (131072)
I1223 00:14:23.565696 25375 net.cpp:129] Top shape: 1 1 128 32 32 (131072)
I1223 00:14:23.565701 25375 net.cpp:129] Top shape: 1 1 128 32 32 (131072)
I1223 00:14:23.565704 25375 net.cpp:129] Top shape: 1 1 128 32 32 (131072)
I1223 00:14:23.565708 25375 net.cpp:129] Top shape: 1 1 128 32 32 (131072)
I1223 00:14:23.565711 25375 net.cpp:129] Top shape: 1 1 128 32 32 (131072)
I1223 00:14:23.565716 25375 net.cpp:129] Top shape: 1 1 128 32 32 (131072)
I1223 00:14:23.565719 25375 net.cpp:129] Top shape: 1 1 128 32 32 (131072)
I1223 00:14:23.565722 25375 net.cpp:129] Top shape: 1 1 128 32 32 (131072)
I1223 00:14:23.565726 25375 net.cpp:129] Top shape: 1 1 128 32 32 (131072)
I1223 00:14:23.565731 25375 net.cpp:129] Top shape: 1 1 128 32 32 (131072)
I1223 00:14:23.565733 25375 net.cpp:129] Top shape: 1 1 128 32 32 (131072)
I1223 00:14:23.565737 25375 net.cpp:129] Top shape: 1 1 128 32 32 (131072)
I1223 00:14:23.565740 25375 net.cpp:129] Top shape: 1 1 128 32 32 (131072)
I1223 00:14:23.565745 25375 net.cpp:129] Top shape: 1 1 128 32 32 (131072)
I1223 00:14:23.565747 25375 net.cpp:137] Memory required for data: 17104960
I1223 00:14:23.565750 25375 layer_factory.hpp:77] Creating layer encode1_cont_slice
I1223 00:14:23.565757 25375 net.cpp:84] Creating Layer encode1_cont_slice
I1223 00:14:23.565759 25375 net.cpp:406] encode1_cont_slice <- cont
I1223 00:14:23.565767 25375 net.cpp:380] encode1_cont_slice -> cont_t=1
I1223 00:14:23.565773 25375 net.cpp:380] encode1_cont_slice -> cont_t=2
…
I1223 00:14:23.565827 25375 net.cpp:380] encode1_cont_slice -> cont_t=10
I1223 00:14:23.565834 25375 net.cpp:380] encode1_cont_slice -> cont_t=11
I1223 00:14:23.565840 25375 net.cpp:380] encode1_cont_slice -> cont_t=12
I1223 00:14:23.565850 25375 net.cpp:380] encode1_cont_slice -> cont_t=13
I1223 00:14:23.565855 25375 net.cpp:380] encode1_cont_slice -> cont_t=14
I1223 00:14:23.565861 25375 net.cpp:380] encode1_cont_slice -> cont_t=15
I1223 00:14:23.565867 25375 net.cpp:380] encode1_cont_slice -> cont_t=16
I1223 00:14:23.566048 25375 net.cpp:122] Setting up encode1_cont_slice
I1223 00:14:23.566056 25375 net.cpp:129] Top shape: 1 1 (1)
I1223 00:14:23.566058 25375 net.cpp:129] Top shape: 1 1 (1)
I1223 00:14:23.566062 25375 net.cpp:129] Top shape: 1 1 (1)
I1223 00:14:23.566066 25375 net.cpp:129] Top shape: 1 1 (1)
I1223 00:14:23.566068 25375 net.cpp:129] Top shape: 1 1 (1)
I1223 00:14:23.566072 25375 net.cpp:129] Top shape: 1 1 (1)
I1223 00:14:23.566076 25375 net.cpp:129] Top shape: 1 1 (1)
I1223 00:14:23.566078 25375 net.cpp:129] Top shape: 1 1 (1)
I1223 00:14:23.566082 25375 net.cpp:129] Top shape: 1 1 (1)
I1223 00:14:23.566085 25375 net.cpp:129] Top shape: 1 1 (1)
I1223 00:14:23.566088 25375 net.cpp:129] Top shape: 1 1 (1)
I1223 00:14:23.566092 25375 net.cpp:129] Top shape: 1 1 (1)
I1223 00:14:23.566095 25375 net.cpp:129] Top shape: 1 1 (1)
I1223 00:14:23.566098 25375 net.cpp:129] Top shape: 1 1 (1)
I1223 00:14:23.566102 25375 net.cpp:129] Top shape: 1 1 (1)
I1223 00:14:23.566107 25375 net.cpp:129] Top shape: 1 1 (1)
I1223 00:14:23.566108 25375 net.cpp:137] Memory required for data: 17105024
I1223 00:14:23.566112 25375 layer_factory.hpp:77] Creating layer cont_t=1_encode1_cont_slice_0_split
I1223 00:14:23.566117 25375 net.cpp:84] Creating Layer cont_t=1_encode1_cont_slice_0_split
I1223 00:14:23.566119 25375 net.cpp:406] cont_t=1_encode1_cont_slice_0_split <- cont_t=1
I1223 00:14:23.566125 25375 net.cpp:380] cont_t=1_encode1_cont_slice_0_split -> cont_t=1_encode1_cont_slice_0_split_0
I1223 00:14:23.566131 25375 net.cpp:380] cont_t=1_encode1_cont_slice_0_split -> cont_t=1_encode1_cont_slice_0_split_1
I1223 00:14:23.566164 25375 net.cpp:122] Setting up cont_t=1_encode1_cont_slice_0_split
I1223 00:14:23.566170 25375 net.cpp:129] Top shape: 1 1 (1)
I1223 00:14:23.566174 25375 net.cpp:129] Top shape: 1 1 (1)
I1223 00:14:23.566176 25375 net.cpp:137] Memory required for data: 17105032
I1223 00:14:23.566179 25375 layer_factory.hpp:77] Creating layer cont_t=2_encode1_cont_slice_1_split
I1223 00:14:23.566184 25375 net.cpp:84] Creating Layer cont_t=2_encode1_cont_slice_1_split
I1223 00:14:23.566186 25375 net.cpp:406] cont_t=2_encode1_cont_slice_1_split <- cont_t=2
I1223 00:14:23.566192 25375 net.cpp:380] cont_t=2_encode1_cont_slice_1_split -> cont_t=2_encode1_cont_slice_1_split_0
I1223 00:14:23.566198 25375 net.cpp:380] cont_t=2_encode1_cont_slice_1_split -> cont_t=2_encode1_cont_slice_1_split_1
I1223 00:14:23.566231 25375 net.cpp:122] Setting up cont_t=2_encode1_cont_slice_1_split
I1223 00:14:23.566236 25375 net.cpp:129] Top shape: 1 1 (1)
I1223 00:14:23.566241 25375 net.cpp:129] Top shape: 1 1 (1)
I1223 00:14:23.566243 25375 net.cpp:137] Memory required for data: 17105040
I1223 00:14:23.566246 25375 layer_factory.hpp:77] Creating layer cont_t=3_encode1_cont_slice_2_split
I1223 00:14:23.566249 25375 net.cpp:84] Creating Layer cont_t=3_encode1_cont_slice_2_split
I1223 00:14:23.566253 25375 net.cpp:406] cont_t=3_encode1_cont_slice_2_split <- cont_t=3
I1223 00:14:23.566259 25375 net.cpp:380] cont_t=3_encode1_cont_slice_2_split -> cont_t=3_encode1_cont_slice_2_split_0
I1223 00:14:23.566265 25375 net.cpp:380] cont_t=3_encode1_cont_slice_2_split -> cont_t=3_encode1_cont_slice_2_split_1
I1223 00:14:23.566296 25375 net.cpp:122] Setting up cont_t=3_encode1_cont_slice_2_split
I1223 00:14:23.566303 25375 net.cpp:129] Top shape: 1 1 (1)
I1223 00:14:23.566306 25375 net.cpp:129] Top shape: 1 1 (1)
I1223 00:14:23.566308 25375 net.cpp:137] Memory required for data: 17105048
I1223 00:14:23.566311 25375 layer_factory.hpp:77] Creating layer cont_t=4_encode1_cont_slice_3_split
I1223 00:14:23.566318 25375 net.cpp:84] Creating Layer cont_t=4_encode1_cont_slice_3_split
I1223 00:14:23.566321 25375 net.cpp:406] cont_t=4_encode1_cont_slice_3_split <- cont_t=4
I1223 00:14:23.566328 25375 net.cpp:380] cont_t=4_encode1_cont_slice_3_split -> cont_t=4_encode1_cont_slice_3_split_0
I1223 00:14:23.566332 25375 net.cpp:380] cont_t=4_encode1_cont_slice_3_split -> cont_t=4_encode1_cont_slice_3_split_1
I1223 00:14:23.566364 25375 net.cpp:122] Setting up cont_t=4_encode1_cont_slice_3_split
I1223 00:14:23.566370 25375 net.cpp:129] Top shape: 1 1 (1)
I1223 00:14:23.566373 25375 net.cpp:129] Top shape: 1 1 (1)
I1223 00:14:23.566376 25375 net.cpp:137] Memory required for data: 17105056
I1223 00:14:23.566378 25375 layer_factory.hpp:77] Creating layer cont_t=5_encode1_cont_slice_4_split
I1223 00:14:23.566383 25375 net.cpp:84] Creating Layer cont_t=5_encode1_cont_slice_4_split
I1223 00:14:23.566386 25375 net.cpp:406] cont_t=5_encode1_cont_slice_4_split <- cont_t=5
I1223 00:14:23.566391 25375 net.cpp:380] cont_t=5_encode1_cont_slice_4_split -> cont_t=5_encode1_cont_slice_4_split_0
I1223 00:14:23.566397 25375 net.cpp:380] cont_t=5_encode1_cont_slice_4_split -> cont_t=5_encode1_cont_slice_4_split_1
I1223 00:14:23.566429 25375 net.cpp:122] Setting up cont_t=5_encode1_cont_slice_4_split
I1223 00:14:23.566435 25375 net.cpp:129] Top shape: 1 1 (1)
I1223 00:14:23.566439 25375 net.cpp:129] Top shape: 1 1 (1)
I1223 00:14:23.566442 25375 net.cpp:137] Memory required for data: 17105064
I1223 00:14:23.566444 25375 layer_factory.hpp:77] Creating layer cont_t=6_encode1_cont_slice_5_split
I1223 00:14:23.566448 25375 net.cpp:84] Creating Layer cont_t=6_encode1_cont_slice_5_split
I1223 00:14:23.566452 25375 net.cpp:406] cont_t=6_encode1_cont_slice_5_split <- cont_t=6
I1223 00:14:23.566455 25375 net.cpp:380] cont_t=6_encode1_cont_slice_5_split -> cont_t=6_encode1_cont_slice_5_split_0
I1223 00:14:23.566462 25375 net.cpp:380] cont_t=6_encode1_cont_slice_5_split -> cont_t=6_encode1_cont_slice_5_split_1
I1223 00:14:23.566490 25375 net.cpp:122] Setting up cont_t=6_encode1_cont_slice_5_split
I1223 00:14:23.566496 25375 net.cpp:129] Top shape: 1 1 (1)
I1223 00:14:23.566500 25375 net.cpp:129] Top shape: 1 1 (1)
I1223 00:14:23.566503 25375 net.cpp:137] Memory required for data: 17105072
I1223 00:14:23.566505 25375 layer_factory.hpp:77] Creating layer cont_t=7_encode1_cont_slice_6_split
I1223 00:14:23.566509 25375 net.cpp:84] Creating Layer cont_t=7_encode1_cont_slice_6_split
I1223 00:14:23.566512 25375 net.cpp:406] cont_t=7_encode1_cont_slice_6_split <- cont_t=7
I1223 00:14:23.566519 25375 net.cpp:380] cont_t=7_encode1_cont_slice_6_split -> cont_t=7_encode1_cont_slice_6_split_0
I1223 00:14:23.566524 25375 net.cpp:380] cont_t=7_encode1_cont_slice_6_split -> cont_t=7_encode1_cont_slice_6_split_1
I1223 00:14:23.566552 25375 net.cpp:122] Setting up cont_t=7_encode1_cont_slice_6_split
I1223 00:14:23.566558 25375 net.cpp:129] Top shape: 1 1 (1)
I1223 00:14:23.566562 25375 net.cpp:129] Top shape: 1 1 (1)
I1223 00:14:23.566565 25375 net.cpp:137] Memory required for data: 17105080
I1223 00:14:23.566567 25375 layer_factory.hpp:77] Creating layer cont_t=8_encode1_cont_slice_7_split
I1223 00:14:23.566572 25375 net.cpp:84] Creating Layer cont_t=8_encode1_cont_slice_7_split
I1223 00:14:23.566576 25375 net.cpp:406] cont_t=8_encode1_cont_slice_7_split <- cont_t=8
I1223 00:14:23.566581 25375 net.cpp:380] cont_t=8_encode1_cont_slice_7_split -> cont_t=8_encode1_cont_slice_7_split_0
I1223 00:14:23.566586 25375 net.cpp:380] cont_t=8_encode1_cont_slice_7_split -> cont_t=8_encode1_cont_slice_7_split_1
I1223 00:14:23.566615 25375 net.cpp:122] Setting up cont_t=8_encode1_cont_slice_7_split
I1223 00:14:23.566622 25375 net.cpp:129] Top shape: 1 1 (1)
I1223 00:14:23.566625 25375 net.cpp:129] Top shape: 1 1 (1)
I1223 00:14:23.566627 25375 net.cpp:137] Memory required for data: 17105088
I1223 00:14:23.566630 25375 layer_factory.hpp:77] Creating layer cont_t=9_encode1_cont_slice_8_split
I1223 00:14:23.566634 25375 net.cpp:84] Creating Layer cont_t=9_encode1_cont_slice_8_split
I1223 00:14:23.566637 25375 net.cpp:406] cont_t=9_encode1_cont_slice_8_split <- cont_t=9
I1223 00:14:23.566642 25375 net.cpp:380] cont_t=9_encode1_cont_slice_8_split -> cont_t=9_encode1_cont_slice_8_split_0
I1223 00:14:23.566648 25375 net.cpp:380] cont_t=9_encode1_cont_slice_8_split -> cont_t=9_encode1_cont_slice_8_split_1
I1223 00:14:23.566679 25375 net.cpp:122] Setting up cont_t=9_encode1_cont_slice_8_split
I1223 00:14:23.566685 25375 net.cpp:129] Top shape: 1 1 (1)
I1223 00:14:23.566689 25375 net.cpp:129] Top shape: 1 1 (1)
I1223 00:14:23.566691 25375 net.cpp:137] Memory required for data: 17105096
I1223 00:14:23.566694 25375 layer_factory.hpp:77] Creating layer cont_t=10_encode1_cont_slice_9_split
I1223 00:14:23.566704 25375 net.cpp:84] Creating Layer cont_t=10_encode1_cont_slice_9_split
I1223 00:14:23.566707 25375 net.cpp:406] cont_t=10_encode1_cont_slice_9_split <- cont_t=10
I1223 00:14:23.566712 25375 net.cpp:380] cont_t=10_encode1_cont_slice_9_split -> cont_t=10_encode1_cont_slice_9_split_0
I1223 00:14:23.566718 25375 net.cpp:380] cont_t=10_encode1_cont_slice_9_split -> cont_t=10_encode1_cont_slice_9_split_1
I1223 00:14:23.566750 25375 net.cpp:122] Setting up cont_t=10_encode1_cont_slice_9_split
I1223 00:14:23.566756 25375 net.cpp:129] Top shape: 1 1 (1)
I1223 00:14:23.566758 25375 net.cpp:129] Top shape: 1 1 (1)
I1223 00:14:23.566761 25375 net.cpp:137] Memory required for data: 17105104
I1223 00:14:23.566764 25375 layer_factory.hpp:77] Creating layer cont_t=11_encode1_cont_slice_10_split
I1223 00:14:23.566768 25375 net.cpp:84] Creating Layer cont_t=11_encode1_cont_slice_10_split
I1223 00:14:23.566771 25375 net.cpp:406] cont_t=11_encode1_cont_slice_10_split <- cont_t=11
I1223 00:14:23.566776 25375 net.cpp:380] cont_t=11_encode1_cont_slice_10_split -> cont_t=11_encode1_cont_slice_10_split_0
I1223 00:14:23.566782 25375 net.cpp:380] cont_t=11_encode1_cont_slice_10_split -> cont_t=11_encode1_cont_slice_10_split_1
I1223 00:14:23.566812 25375 net.cpp:122] Setting up cont_t=11_encode1_cont_slice_10_split
I1223 00:14:23.566817 25375 net.cpp:129] Top shape: 1 1 (1)
I1223 00:14:23.566821 25375 net.cpp:129] Top shape: 1 1 (1)
I1223 00:14:23.566823 25375 net.cpp:137] Memory required for data: 17105112
I1223 00:14:23.566826 25375 layer_factory.hpp:77] Creating layer cont_t=12_encode1_cont_slice_11_split
I1223 00:14:23.566833 25375 net.cpp:84] Creating Layer cont_t=12_encode1_cont_slice_11_split
I1223 00:14:23.566836 25375 net.cpp:406] cont_t=12_encode1_cont_slice_11_split <- cont_t=12
I1223 00:14:23.566841 25375 net.cpp:380] cont_t=12_encode1_cont_slice_11_split -> cont_t=12_encode1_cont_slice_11_split_0
I1223 00:14:23.566846 25375 net.cpp:380] cont_t=12_encode1_cont_slice_11_split -> cont_t=12_encode1_cont_slice_11_split_1
I1223 00:14:23.566877 25375 net.cpp:122] Setting up cont_t=12_encode1_cont_slice_11_split
I1223 00:14:23.566882 25375 net.cpp:129] Top shape: 1 1 (1)
I1223 00:14:23.566886 25375 net.cpp:129] Top shape: 1 1 (1)
I1223 00:14:23.566889 25375 net.cpp:137] Memory required for data: 17105120
I1223 00:14:23.566891 25375 layer_factory.hpp:77] Creating layer cont_t=13_encode1_cont_slice_12_split
I1223 00:14:23.566895 25375 net.cpp:84] Creating Layer cont_t=13_encode1_cont_slice_12_split
I1223 00:14:23.566900 25375 net.cpp:406] cont_t=13_encode1_cont_slice_12_split <- cont_t=13
I1223 00:14:23.566905 25375 net.cpp:380] cont_t=13_encode1_cont_slice_12_split -> cont_t=13_encode1_cont_slice_12_split_0
I1223 00:14:23.566910 25375 net.cpp:380] cont_t=13_encode1_cont_slice_12_split -> cont_t=13_encode1_cont_slice_12_split_1
I1223 00:14:23.566941 25375 net.cpp:122] Setting up cont_t=13_encode1_cont_slice_12_split
I1223 00:14:23.566946 25375 net.cpp:129] Top shape: 1 1 (1)
I1223 00:14:23.566949 25375 net.cpp:129] Top shape: 1 1 (1)
I1223 00:14:23.566952 25375 net.cpp:137] Memory required for data: 17105128
I1223 00:14:23.566956 25375 layer_factory.hpp:77] Creating layer cont_t=14_encode1_cont_slice_13_split
I1223 00:14:23.566961 25375 net.cpp:84] Creating Layer cont_t=14_encode1_cont_slice_13_split
I1223 00:14:23.566963 25375 net.cpp:406] cont_t=14_encode1_cont_slice_13_split <- cont_t=14
I1223 00:14:23.566967 25375 net.cpp:380] cont_t=14_encode1_cont_slice_13_split -> cont_t=14_encode1_cont_slice_13_split_0
I1223 00:14:23.566973 25375 net.cpp:380] cont_t=14_encode1_cont_slice_13_split -> cont_t=14_encode1_cont_slice_13_split_1
I1223 00:14:23.567006 25375 net.cpp:122] Setting up cont_t=14_encode1_cont_slice_13_split
I1223 00:14:23.567013 25375 net.cpp:129] Top shape: 1 1 (1)
I1223 00:14:23.567016 25375 net.cpp:129] Top shape: 1 1 (1)
I1223 00:14:23.567019 25375 net.cpp:137] Memory required for data: 17105136
I1223 00:14:23.567021 25375 layer_factory.hpp:77] Creating layer cont_t=15_encode1_cont_slice_14_split
I1223 00:14:23.567025 25375 net.cpp:84] Creating Layer cont_t=15_encode1_cont_slice_14_split
I1223 00:14:23.567028 25375 net.cpp:406] cont_t=15_encode1_cont_slice_14_split <- cont_t=15
I1223 00:14:23.567034 25375 net.cpp:380] cont_t=15_encode1_cont_slice_14_split -> cont_t=15_encode1_cont_slice_14_split_0
I1223 00:14:23.567039 25375 net.cpp:380] cont_t=15_encode1_cont_slice_14_split -> cont_t=15_encode1_cont_slice_14_split_1
I1223 00:14:23.567068 25375 net.cpp:122] Setting up cont_t=15_encode1_cont_slice_14_split
I1223 00:14:23.567075 25375 net.cpp:129] Top shape: 1 1 (1)
I1223 00:14:23.567078 25375 net.cpp:129] Top shape: 1 1 (1)
I1223 00:14:23.567081 25375 net.cpp:137] Memory required for data: 17105144
I1223 00:14:23.567083 25375 layer_factory.hpp:77] Creating layer cont_t=16_encode1_cont_slice_15_split
I1223 00:14:23.567087 25375 net.cpp:84] Creating Layer cont_t=16_encode1_cont_slice_15_split
I1223 00:14:23.567091 25375 net.cpp:406] cont_t=16_encode1_cont_slice_15_split <- cont_t=16
I1223 00:14:23.567096 25375 net.cpp:380] cont_t=16_encode1_cont_slice_15_split -> cont_t=16_encode1_cont_slice_15_split_0
I1223 00:14:23.567102 25375 net.cpp:380] cont_t=16_encode1_cont_slice_15_split -> cont_t=16_encode1_cont_slice_15_split_1
I1223 00:14:23.567132 25375 net.cpp:122] Setting up cont_t=16_encode1_cont_slice_15_split
I1223 00:14:23.567139 25375 net.cpp:129] Top shape: 1 1 (1)
I1223 00:14:23.567142 25375 net.cpp:129] Top shape: 1 1 (1)
I1223 00:14:23.567145 25375 net.cpp:137] Memory required for data: 17105152
I1223 00:14:23.567147 25375 layer_factory.hpp:77] Creating layer encode1_dummy_forward_c0
I1223 00:14:23.567152 25375 net.cpp:84] Creating Layer encode1_dummy_forward_c0
I1223 00:14:23.567155 25375 net.cpp:406] encode1_dummy_forward_c0 <- c_t=0
I1223 00:14:23.567160 25375 net.cpp:367] encode1_dummy_forward_c0 -> c_t=0 (in-place)
I1223 00:14:23.567181 25375 net.cpp:122] Setting up encode1_dummy_forward_c0
I1223 00:14:23.567188 25375 net.cpp:129] Top shape: 1 1 32 32 32 (32768)
I1223 00:14:23.567191 25375 net.cpp:137] Memory required for data: 17236224
I1223 00:14:23.567198 25375 layer_factory.hpp:77] Creating layer c_t=0_encode1_dummy_forward_c0_0_split
I1223 00:14:23.567203 25375 net.cpp:84] Creating Layer c_t=0_encode1_dummy_forward_c0_0_split
I1223 00:14:23.567206 25375 net.cpp:406] c_t=0_encode1_dummy_forward_c0_0_split <- c_t=0
I1223 00:14:23.567211 25375 net.cpp:380] c_t=0_encode1_dummy_forward_c0_0_split -> c_t=0_encode1_dummy_forward_c0_0_split_0
I1223 00:14:23.567217 25375 net.cpp:380] c_t=0_encode1_dummy_forward_c0_0_split -> c_t=0_encode1_dummy_forward_c0_0_split_1
I1223 00:14:23.567224 25375 net.cpp:380] c_t=0_encode1_dummy_forward_c0_0_split -> c_t=0_encode1_dummy_forward_c0_0_split_2
I1223 00:14:23.567230 25375 net.cpp:380] c_t=0_encode1_dummy_forward_c0_0_split -> c_t=0_encode1_dummy_forward_c0_0_split_3
I1223 00:14:23.567287 25375 net.cpp:122] Setting up c_t=0_encode1_dummy_forward_c0_0_split
I1223 00:14:23.567294 25375 net.cpp:129] Top shape: 1 1 32 32 32 (32768)
I1223 00:14:23.567298 25375 net.cpp:129] Top shape: 1 1 32 32 32 (32768)
I1223 00:14:23.567302 25375 net.cpp:129] Top shape: 1 1 32 32 32 (32768)
I1223 00:14:23.567306 25375 net.cpp:129] Top shape: 1 1 32 32 32 (32768)
I1223 00:14:23.567308 25375 net.cpp:137] Memory required for data: 17760512
I1223 00:14:23.567312 25375 layer_factory.hpp:77] Creating layer encode1_dummy_forward_h0
I1223 00:14:23.567317 25375 net.cpp:84] Creating Layer encode1_dummy_forward_h0
I1223 00:14:23.567319 25375 net.cpp:406] encode1_dummy_forward_h0 <- h_t=0
I1223 00:14:23.567325 25375 net.cpp:367] encode1_dummy_forward_h0 -> h_t=0 (in-place)
I1223 00:14:23.567345 25375 net.cpp:122] Setting up encode1_dummy_forward_h0
I1223 00:14:23.567351 25375 net.cpp:129] Top shape: 1 1 32 32 32 (32768)
I1223 00:14:23.567353 25375 net.cpp:137] Memory required for data: 17891584
I1223 00:14:23.567359 25375 layer_factory.hpp:77] Creating layer encode1_h_conted_t=0
I1223 00:14:23.567364 25375 net.cpp:84] Creating Layer encode1_h_conted_t=0
I1223 00:14:23.567368 25375 net.cpp:406] encode1_h_conted_t=0 <- h_t=0
I1223 00:14:23.567373 25375 net.cpp:406] encode1_h_conted_t=0 <- cont_t=1_encode1_cont_slice_0_split_0
I1223 00:14:23.567379 25375 net.cpp:380] encode1_h_conted_t=0 -> h_conted_t=0
I1223 00:14:23.567471 25375 net.cpp:122] Setting up encode1_h_conted_t=0
I1223 00:14:23.567477 25375 net.cpp:129] Top shape: 1 1 32 32 32 (32768)
I1223 00:14:23.567481 25375 net.cpp:137] Memory required for data: 18022656
I1223 00:14:23.567483 25375 layer_factory.hpp:77] Creating layer encode1_hidden->transform->0
I1223 00:14:23.567492 25375 net.cpp:84] Creating Layer encode1_hidden->transform->0
I1223 00:14:23.567495 25375 net.cpp:406] encode1_hidden->transform->0 <- h_conted_t=0
I1223 00:14:23.567502 25375 net.cpp:380] encode1_hidden->transform->0 -> hidden->transform->0
I1223 00:14:23.567992 25375 net.cpp:122] Setting up encode1_hidden->transform->0
I1223 00:14:23.568001 25375 net.cpp:129] Top shape: 1 1 128 32 32 (131072)
I1223 00:14:23.568003 25375 net.cpp:137] Memory required for data: 18546944
I1223 00:14:23.568011 25375 layer_factory.hpp:77] Creating layer encode1_hadamard->input_t=0
I1223 00:14:23.568017 25375 net.cpp:84] Creating Layer encode1_hadamard->input_t=0
I1223 00:14:23.568022 25375 net.cpp:406] encode1_hadamard->input_t=0 <- c_t=0_encode1_dummy_forward_c0_0_split_0
I1223 00:14:23.568027 25375 net.cpp:380] encode1_hadamard->input_t=0 -> hadamard_in_t=1
I1223 00:14:23.568130 25375 net.cpp:122] Setting up encode1_hadamard->input_t=0
I1223 00:14:23.568137 25375 net.cpp:129] Top shape: 1 1 32 32 32 (32768)
I1223 00:14:23.568140 25375 net.cpp:137] Memory required for data: 18678016
I1223 00:14:23.568145 25375 layer_factory.hpp:77] Creating layer encode1_hadamard->forget_t=0
I1223 00:14:23.568150 25375 net.cpp:84] Creating Layer encode1_hadamard->forget_t=0
I1223 00:14:23.568155 25375 net.cpp:406] encode1_hadamard->forget_t=0 <- c_t=0_encode1_dummy_forward_c0_0_split_1
I1223 00:14:23.568159 25375 net.cpp:380] encode1_hadamard->forget_t=0 -> hadamard_fog_t=1
I1223 00:14:23.568255 25375 net.cpp:122] Setting up encode1_hadamard->forget_t=0
I1223 00:14:23.568262 25375 net.cpp:129] Top shape: 1 1 32 32 32 (32768)
I1223 00:14:23.568264 25375 net.cpp:137] Memory required for data: 18809088
I1223 00:14:23.568282 25375 layer_factory.hpp:77] Creating layer encode1_hadamard->output_t=0
I1223 00:14:23.568287 25375 net.cpp:84] Creating Layer encode1_hadamard->output_t=0
I1223 00:14:23.568290 25375 net.cpp:406] encode1_hadamard->output_t=0 <- c_t=0_encode1_dummy_forward_c0_0_split_2
I1223 00:14:23.568295 25375 net.cpp:380] encode1_hadamard->output_t=0 -> hadamard_out_t=1
I1223 00:14:23.568389 25375 net.cpp:122] Setting up encode1_hadamard->output_t=0
I1223 00:14:23.568397 25375 net.cpp:129] Top shape: 1 1 32 32 32 (32768)
I1223 00:14:23.568400 25375 net.cpp:137] Memory required for data: 18940160
I1223 00:14:23.568403 25375 layer_factory.hpp:77] Creating layer encode1_hadamard_gat_t=1
I1223 00:14:23.568409 25375 net.cpp:84] Creating Layer encode1_hadamard_gat_t=1
I1223 00:14:23.568413 25375 net.cpp:380] encode1_hadamard_gat_t=1 -> hadamard_gat_t=1
I1223 00:14:23.568490 25375 net.cpp:122] Setting up encode1_hadamard_gat_t=1
I1223 00:14:23.568497 25375 net.cpp:129] Top shape: 1 1 32 32 32 (32768)
I1223 00:14:23.568500 25375 net.cpp:137] Memory required for data: 19071232
I1223 00:14:23.568503 25375 layer_factory.hpp:77] Creating layer encode1_concat_hadamard_t=1
I1223 00:14:23.568509 25375 net.cpp:84] Creating Layer encode1_concat_hadamard_t=1
I1223 00:14:23.568512 25375 net.cpp:406] encode1_concat_hadamard_t=1 <- hadamard_in_t=1
I1223 00:14:23.568516 25375 net.cpp:406] encode1_concat_hadamard_t=1 <- hadamard_fog_t=1
I1223 00:14:23.568521 25375 net.cpp:406] encode1_concat_hadamard_t=1 <- hadamard_out_t=1
I1223 00:14:23.568524 25375 net.cpp:406] encode1_concat_hadamard_t=1 <- hadamard_gat_t=1
I1223 00:14:23.568543 25375 net.cpp:380] encode1_concat_hadamard_t=1 -> hadamard_t=1
I1223 00:14:23.568567 25375 net.cpp:122] Setting up encode1_concat_hadamard_t=1
I1223 00:14:23.568574 25375 net.cpp:129] Top shape: 1 1 128 32 32 (131072)
I1223 00:14:23.568576 25375 net.cpp:137] Memory required for data: 19595520
I1223 00:14:23.568579 25375 layer_factory.hpp:77] Creating layer encode1_gate_input_1
I1223 00:14:23.568584 25375 net.cpp:84] Creating Layer encode1_gate_input_1
I1223 00:14:23.568588 25375 net.cpp:406] encode1_gate_input_1 <- hidden->transform->0
I1223 00:14:23.568593 25375 net.cpp:406] encode1_gate_input_1 <- x->transform->t=1
I1223 00:14:23.568596 25375 net.cpp:406] encode1_gate_input_1 <- hadamard_t=1
I1223 00:14:23.568603 25375 net.cpp:380] encode1_gate_input_1 -> gate_input_1
I1223 00:14:23.568624 25375 net.cpp:122] Setting up encode1_gate_input_1
I1223 00:14:23.568632 25375 net.cpp:129] Top shape: 1 1 128 32 32 (131072)
I1223 00:14:23.568636 25375 net.cpp:137] Memory required for data: 20119808
I1223 00:14:23.568639 25375 layer_factory.hpp:77] Creating layer encode1_unit_t=1
I1223 00:14:23.568646 25375 net.cpp:84] Creating Layer encode1_unit_t=1
I1223 00:14:23.568650 25375 net.cpp:406] encode1_unit_t=1 <- c_t=0_encode1_dummy_forward_c0_0_split_3
I1223 00:14:23.568655 25375 net.cpp:406] encode1_unit_t=1 <- gate_input_1
I1223 00:14:23.568657 25375 net.cpp:406] encode1_unit_t=1 <- cont_t=1_encode1_cont_slice_0_split_1
I1223 00:14:23.568663 25375 net.cpp:380] encode1_unit_t=1 -> c_t=1
I1223 00:14:23.568670 25375 net.cpp:380] encode1_unit_t=1 -> h_t=1
I1223 00:14:23.568714 25375 net.cpp:122] Setting up encode1_unit_t=1
I1223 00:14:23.568722 25375 net.cpp:129] Top shape: 1 1 32 32 32 (32768)
I1223 00:14:23.568725 25375 net.cpp:129] Top shape: 1 1 32 32 32 (32768)
I1223 00:14:23.568728 25375 net.cpp:137] Memory required for data: 20381952
I1223 00:14:23.568732 25375 layer_factory.hpp:77] Creating layer c_t=1_encode1_unit_t=1_0_split
I1223 00:14:23.568735 25375 net.cpp:84] Creating Layer c_t=1_encode1_unit_t=1_0_split
I1223 00:14:23.568739 25375 net.cpp:406] c_t=1_encode1_unit_t=1_0_split <- c_t=1
I1223 00:14:23.568745 25375 net.cpp:380] c_t=1_encode1_unit_t=1_0_split -> c_t=1_encode1_unit_t=1_0_split_0
I1223 00:14:23.568753 25375 net.cpp:380] c_t=1_encode1_unit_t=1_0_split -> c_t=1_encode1_unit_t=1_0_split_1
I1223 00:14:23.568758 25375 net.cpp:380] c_t=1_encode1_unit_t=1_0_split -> c_t=1_encode1_unit_t=1_0_split_2
I1223 00:14:23.568764 25375 net.cpp:380] c_t=1_encode1_unit_t=1_0_split -> c_t=1_encode1_unit_t=1_0_split_3
I1223 00:14:23.568819 25375 net.cpp:122] Setting up c_t=1_encode1_unit_t=1_0_split
I1223 00:14:23.568825 25375 net.cpp:129] Top shape: 1 1 32 32 32 (32768)
I1223 00:14:23.568830 25375 net.cpp:129] Top shape: 1 1 32 32 32 (32768)
I1223 00:14:23.568833 25375 net.cpp:129] Top shape: 1 1 32 32 32 (32768)
I1223 00:14:23.568837 25375 net.cpp:129] Top shape: 1 1 32 32 32 (32768)
I1223 00:14:23.568840 25375 net.cpp:137] Memory required for data: 20906240
I1223 00:14:23.568842 25375 layer_factory.hpp:77] Creating layer h_t=1_encode1_unit_t=1_1_split
I1223 00:14:23.568847 25375 net.cpp:84] Creating Layer h_t=1_encode1_unit_t=1_1_split
I1223 00:14:23.568850 25375 net.cpp:406] h_t=1_encode1_unit_t=1_1_split <- h_t=1
I1223 00:14:23.568855 25375 net.cpp:380] h_t=1_encode1_unit_t=1_1_split -> h_t=1_encode1_unit_t=1_1_split_0
I1223 00:14:23.568861 25375 net.cpp:380] h_t=1_encode1_unit_t=1_1_split -> h_t=1_encode1_unit_t=1_1_split_1
I1223 00:14:23.568892 25375 net.cpp:122] Setting up h_t=1_encode1_unit_t=1_1_split
I1223 00:14:23.568898 25375 net.cpp:129] Top shape: 1 1 32 32 32 (32768)
I1223 00:14:23.568902 25375 net.cpp:129] Top shape: 1 1 32 32 32 (32768)
I1223 00:14:23.568904 25375 net.cpp:137] Memory required for data: 21168384
I1223 00:14:23.568907 25375 layer_factory.hpp:77] Creating layer encode1_h_conted_t=1
I1223 00:14:23.568913 25375 net.cpp:84] Creating Layer encode1_h_conted_t=1
I1223 00:14:23.568917 25375 net.cpp:406] encode1_h_conted_t=1 <- h_t=1_encode1_unit_t=1_1_split_0
I1223 00:14:23.568922 25375 net.cpp:406] encode1_h_conted_t=1 <- cont_t=2_encode1_cont_slice_1_split_0
I1223 00:14:23.568927 25375 net.cpp:380] encode1_h_conted_t=1 -> h_conted_t=1
I1223 00:14:23.568997 25375 net.cpp:122] Setting up encode1_h_conted_t=1
I1223 00:14:23.569005 25375 net.cpp:129] Top shape: 1 1 32 32 32 (32768)
I1223 00:14:23.569007 25375 net.cpp:137] Memory required for data: 21299456
I1223 00:14:23.569010 25375 layer_factory.hpp:77] Creating layer encode1_hidden->transform->1
I1223 00:14:23.569018 25375 net.cpp:84] Creating Layer encode1_hidden->transform->1
I1223 00:14:23.569022 25375 net.cpp:406] encode1_hidden->transform->1 <- h_conted_t=1
I1223 00:14:23.569028 25375 net.cpp:380] encode1_hidden->transform->1 -> hidden->transform->1
I1223 00:14:23.569514 25375 net.cpp:122] Setting up encode1_hidden->transform->1
I1223 00:14:23.569522 25375 net.cpp:129] Top shape: 1 1 128 32 32 (131072)
I1223 00:14:23.569526 25375 net.cpp:137] Memory required for data: 21823744
I1223 00:14:23.569531 25375 net.cpp:465] Sharing parameters 'h->transform' owned by layer 'encode1_hidden->transform->0', param index 0
I1223 00:14:23.569536 25375 net.cpp:465] Sharing parameters 'h->transform_bias' owned by layer 'encode1_hidden->transform->0', param index 1
I1223 00:14:23.569540 25375 layer_factory.hpp:77] Creating layer encode1_hadamard->input_t=1
I1223 00:14:23.569546 25375 net.cpp:84] Creating Layer encode1_hadamard->input_t=1
I1223 00:14:23.569550 25375 net.cpp:406] encode1_hadamard->input_t=1 <- c_t=1_encode1_unit_t=1_0_split_0
I1223 00:14:23.569555 25375 net.cpp:380] encode1_hadamard->input_t=1 -> hadamard_in_t=2
I1223 00:14:23.569640 25375 net.cpp:122] Setting up encode1_hadamard->input_t=1
I1223 00:14:23.569648 25375 net.cpp:129] Top shape: 1 1 32 32 32 (32768)
I1223 00:14:23.569651 25375 net.cpp:137] Memory required for data: 21954816
I1223 00:14:23.569654 25375 net.cpp:465] Sharing parameters 'hadamard.input' owned by layer 'encode1_hadamard->input_t=0', param index 0
I1223 00:14:23.569658 25375 layer_factory.hpp:77] Creating layer encode1_hadamard->forget_t=1
I1223 00:14:23.569664 25375 net.cpp:84] Creating Layer encode1_hadamard->forget_t=1
I1223 00:14:23.569667 25375 net.cpp:406] encode1_hadamard->forget_t=1 <- c_t=1_encode1_unit_t=1_0_split_1
I1223 00:14:23.569672 25375 net.cpp:380] encode1_hadamard->forget_t=1 -> hadamard_fog_t=2
I1223 00:14:23.569767 25375 net.cpp:122] Setting up encode1_hadamard->forget_t=1
I1223 00:14:23.569774 25375 net.cpp:129] Top shape: 1 1 32 32 32 (32768)
I1223 00:14:23.569777 25375 net.cpp:137] Memory required for data: 22085888
I1223 00:14:23.569782 25375 net.cpp:465] Sharing parameters 'hadamard.forget' owned by layer 'encode1_hadamard->forget_t=0', param index 0
I1223 00:14:23.569784 25375 layer_factory.hpp:77] Creating layer encode1_hadamard->output_t=1
I1223 00:14:23.569802 25375 net.cpp:84] Creating Layer encode1_hadamard->output_t=1
I1223 00:14:23.569805 25375 net.cpp:406] encode1_hadamard->output_t=1 <- c_t=1_encode1_unit_t=1_0_split_2
I1223 00:14:23.569810 25375 net.cpp:380] encode1_hadamard->output_t=1 -> hadamard_out_t=2
I1223 00:14:23.569905 25375 net.cpp:122] Setting up encode1_hadamard->output_t=1
I1223 00:14:23.569912 25375 net.cpp:129] Top shape: 1 1 32 32 32 (32768)
I1223 00:14:23.569916 25375 net.cpp:137] Memory required for data: 22216960
I1223 00:14:23.569918 25375 net.cpp:465] Sharing parameters 'hadamard.output' owned by layer 'encode1_hadamard->output_t=0', param index 0
I1223 00:14:23.569921 25375 layer_factory.hpp:77] Creating layer encode1_hadamard_gat_t=2
I1223 00:14:23.569926 25375 net.cpp:84] Creating Layer encode1_hadamard_gat_t=2
I1223 00:14:23.569931 25375 net.cpp:380] encode1_hadamard_gat_t=2 -> hadamard_gat_t=2
I1223 00:14:23.570736 25375 net.cpp:122] Setting up encode1_hadamard_gat_t=2
I1223 00:14:23.570746 25375 net.cpp:129] Top shape: 1 1 32 32 32 (32768)
I1223 00:14:23.570749 25375 net.cpp:137] Memory required for data: 22348032
I1223 00:14:23.570752 25375 layer_factory.hpp:77] Creating layer encode1_concat_hadamard_t=2
I1223 00:14:23.570760 25375 net.cpp:84] Creating Layer encode1_concat_hadamard_t=2
I1223 00:14:23.570765 25375 net.cpp:406] encode1_concat_hadamard_t=2 <- hadamard_in_t=2
I1223 00:14:23.570770 25375 net.cpp:406] encode1_concat_hadamard_t=2 <- hadamard_fog_t=2
I1223 00:14:23.570773 25375 net.cpp:406] encode1_concat_hadamard_t=2 <- hadamard_out_t=2
I1223 00:14:23.570777 25375 net.cpp:406] encode1_concat_hadamard_t=2 <- hadamard_gat_t=2
I1223 00:14:23.570782 25375 net.cpp:380] encode1_concat_hadamard_t=2 -> hadamard_t=2
I1223 00:14:23.570824 25375 net.cpp:122] Setting up encode1_concat_hadamard_t=2
I1223 00:14:23.570830 25375 net.cpp:129] Top shape: 1 1 128 32 32 (131072)
I1223 00:14:23.570833 25375 net.cpp:137] Memory required for data: 22872320
I1223 00:14:23.570837 25375 layer_factory.hpp:77] Creating layer encode1_gate_input_2
I1223 00:14:23.570842 25375 net.cpp:84] Creating Layer encode1_gate_input_2
I1223 00:14:23.570844 25375 net.cpp:406] encode1_gate_input_2 <- hidden->transform->1
I1223 00:14:23.570849 25375 net.cpp:406] encode1_gate_input_2 <- x->transform->t=2
I1223 00:14:23.570852 25375 net.cpp:406] encode1_gate_input_2 <- hadamard_t=2
I1223 00:14:23.570858 25375 net.cpp:380] encode1_gate_input_2 -> gate_input_2
I1223 00:14:23.570883 25375 net.cpp:122] Setting up encode1_gate_input_2
I1223 00:14:23.570888 25375 net.cpp:129] Top shape: 1 1 128 32 32 (131072)
I1223 00:14:23.570891 25375 net.cpp:137] Memory required for data: 23396608
I1223 00:14:23.570894 25375 layer_factory.hpp:77] Creating layer encode1_unit_t=2
I1223 00:14:23.570902 25375 net.cpp:84] Creating Layer encode1_unit_t=2
I1223 00:14:23.570906 25375 net.cpp:406] encode1_unit_t=2 <- c_t=1_encode1_unit_t=1_0_split_3
I1223 00:14:23.570910 25375 net.cpp:406] encode1_unit_t=2 <- gate_input_2
I1223 00:14:23.570914 25375 net.cpp:406] encode1_unit_t=2 <- cont_t=2_encode1_cont_slice_1_split_1
I1223 00:14:23.570919 25375 net.cpp:380] encode1_unit_t=2 -> c_t=2
I1223 00:14:23.570925 25375 net.cpp:380] encode1_unit_t=2 -> h_t=2
I1223 00:14:23.570991 25375 net.cpp:122] Setting up encode1_unit_t=2
I1223 00:14:23.570998 25375 net.cpp:129] Top shape: 1 1 32 32 32 (32768)
I1223 00:14:23.571002 25375 net.cpp:129] Top shape: 1 1 32 32 32 (32768)
I1223 00:14:23.571005 25375 net.cpp:137] Memory required for data: 23658752
I1223 00:14:23.571008 25375 layer_factory.hpp:77] Creating layer c_t=2_encode1_unit_t=2_0_split
I1223 00:14:23.571013 25375 net.cpp:84] Creating Layer c_t=2_encode1_unit_t=2_0_split
I1223 00:14:23.571017 25375 net.cpp:406] c_t=2_encode1_unit_t=2_0_split <- c_t=2
I1223 00:14:23.571022 25375 net.cpp:380] c_t=2_encode1_unit_t=2_0_split -> c_t=2_encode1_unit_t=2_0_split_0
I1223 00:14:23.571029 25375 net.cpp:380] c_t=2_encode1_unit_t=2_0_split -> c_t=2_encode1_unit_t=2_0_split_1
I1223 00:14:23.571049 25375 net.cpp:380] c_t=2_encode1_unit_t=2_0_split -> c_t=2_encode1_unit_t=2_0_split_2
I1223 00:14:23.571055 25375 net.cpp:380] c_t=2_encode1_unit_t=2_0_split -> c_t=2_encode1_unit_t=2_0_split_3
I1223 00:14:23.571111 25375 net.cpp:122] Setting up c_t=2_encode1_unit_t=2_0_split
I1223 00:14:23.571118 25375 net.cpp:129] Top shape: 1 1 32 32 32 (32768)
I1223 00:14:23.571122 25375 net.cpp:129] Top shape: 1 1 32 32 32 (32768)
I1223 00:14:23.571125 25375 net.cpp:129] Top shape: 1 1 32 32 32 (32768)
I1223 00:14:23.571130 25375 net.cpp:129] Top shape: 1 1 32 32 32 (32768)
I1223 00:14:23.571132 25375 net.cpp:137] Memory required for data: 24183040
I1223 00:14:23.571135 25375 layer_factory.hpp:77] Creating layer h_t=2_encode1_unit_t=2_1_split
I1223 00:14:23.571139 25375 net.cpp:84] Creating Layer h_t=2_encode1_unit_t=2_1_split
I1223 00:14:23.571143 25375 net.cpp:406] h_t=2_encode1_unit_t=2_1_split <- h_t=2
I1223 00:14:23.571147 25375 net.cpp:380] h_t=2_encode1_unit_t=2_1_split -> h_t=2_encode1_unit_t=2_1_split_0
I1223 00:14:23.571156 25375 net.cpp:380] h_t=2_encode1_unit_t=2_1_split -> h_t=2_encode1_unit_t=2_1_split_1
I1223 00:14:23.571185 25375 net.cpp:122] Setting up h_t=2_encode1_unit_t=2_1_split
I1223 00:14:23.571192 25375 net.cpp:129] Top shape: 1 1 32 32 32 (32768)
I1223 00:14:23.571197 25375 net.cpp:129] Top shape: 1 1 32 32 32 (32768)
I1223 00:14:23.571198 25375 net.cpp:137] Memory required for data: 24445184
I1223 00:14:23.571202 25375 layer_factory.hpp:77] Creating layer encode1_h_conted_t=2
I1223 00:14:23.571208 25375 net.cpp:84] Creating Layer encode1_h_conted_t=2
I1223 00:14:23.571211 25375 net.cpp:406] encode1_h_conted_t=2 <- h_t=2_encode1_unit_t=2_1_split_0
I1223 00:14:23.571215 25375 net.cpp:406] encode1_h_conted_t=2 <- cont_t=3_encode1_cont_slice_2_split_0
I1223 00:14:23.571220 25375 net.cpp:380] encode1_h_conted_t=2 -> h_conted_t=2
I1223 00:14:23.571307 25375 net.cpp:122] Setting up encode1_h_conted_t=2
I1223 00:14:23.571315 25375 net.cpp:129] Top shape: 1 1 32 32 32 (32768)
I1223 00:14:23.571317 25375 net.cpp:137] Memory required for data: 24576256
I1223 00:14:23.571321 25375 layer_factory.hpp:77] Creating layer encode1_hidden->transform->2
I1223 00:14:23.571329 25375 net.cpp:84] Creating Layer encode1_hidden->transform->2
I1223 00:14:23.571333 25375 net.cpp:406] encode1_hidden->transform->2 <- h_conted_t=2
I1223 00:14:23.571341 25375 net.cpp:380] encode1_hidden->transform->2 -> hidden->transform->2
I1223 00:14:23.571837 25375 net.cpp:122] Setting up encode1_hidden->transform->2
I1223 00:14:23.571846 25375 net.cpp:129] Top shape: 1 1 128 32 32 (131072)
I1223 00:14:23.571848 25375 net.cpp:137] Memory required for data: 25100544
I1223 00:14:23.571852 25375 net.cpp:465] Sharing parameters 'h->transform' owned by layer 'encode1_hidden->transform->0', param index 0
I1223 00:14:23.571856 25375 net.cpp:465] Sharing parameters 'h->transform_bias' owned by layer 'encode1_hidden->transform->0', param index 1
I1223 00:14:23.571859 25375 layer_factory.hpp:77] Creating layer encode1_hadamard->input_t=2
I1223 00:14:23.571864 25375 net.cpp:84] Creating Layer encode1_hadamard->input_t=2
I1223 00:14:23.571868 25375 net.cpp:406] encode1_hadamard->input_t=2 <- c_t=2_encode1_unit_t=2_0_split_0
I1223 00:14:23.571873 25375 net.cpp:380] encode1_hadamard->input_t=2 -> hadamard_in_t=3
I1223 00:14:23.571972 25375 net.cpp:122] Setting up encode1_hadamard->input_t=2
I1223 00:14:23.571979 25375 net.cpp:129] Top shape: 1 1 32 32 32 (32768)
I1223 00:14:23.571982 25375 net.cpp:137] Memory required for data: 25231616
I1223 00:14:23.571986 25375 net.cpp:465] Sharing parameters 'hadamard.input' owned by layer 'encode1_hadamard->input_t=0', param index 0
I1223 00:14:23.571990 25375 layer_factory.hpp:77] Creating layer encode1_hadamard->forget_t=2
I1223 00:14:23.571995 25375 net.cpp:84] Creating Layer encode1_hadamard->forget_t=2
I1223 00:14:23.572000 25375 net.cpp:406] encode1_hadamard->forget_t=2 <- c_t=2_encode1_unit_t=2_0_split_1
I1223 00:14:23.572005 25375 net.cpp:380] encode1_hadamard->forget_t=2 -> hadamard_fog_t=3
I1223 00:14:23.572099 25375 net.cpp:122] Setting up encode1_hadamard->forget_t=2
I1223 00:14:23.572108 25375 net.cpp:129] Top shape: 1 1 32 32 32 (32768)
I1223 00:14:23.572109 25375 net.cpp:137] Memory required for data: 25362688
I1223 00:14:23.572115 25375 net.cpp:465] Sharing parameters 'hadamard.forget' owned by layer 'encode1_hadamard->forget_t=0', param index 0
I1223 00:14:23.572119 25375 layer_factory.hpp:77] Creating layer encode1_hadamard->output_t=2
I1223 00:14:23.572124 25375 net.cpp:84] Creating Layer encode1_hadamard->output_t=2
I1223 00:14:23.572127 25375 net.cpp:406] encode1_hadamard->output_t=2 <- c_t=2_encode1_unit_t=2_0_split_2
I1223 00:14:23.572134 25375 net.cpp:380] encode1_hadamard->output_t=2 -> hadamard_out_t=3
I1223 00:14:23.572232 25375 net.cpp:122] Setting up encode1_hadamard->output_t=2
I1223 00:14:23.572239 25375 net.cpp:129] Top shape: 1 1 32 32 32 (32768)
I1223 00:14:23.572242 25375 net.cpp:137] Memory required for data: 25493760
I1223 00:14:23.572245 25375 net.cpp:465] Sharing parameters 'hadamard.output' owned by layer 'encode1_hadamard->output_t=0', param index 0
I1223 00:14:23.572249 25375 layer_factory.hpp:77] Creating layer encode1_hadamard_gat_t=3
I1223 00:14:23.572268 25375 net.cpp:84] Creating Layer encode1_hadamard_gat_t=3
I1223 00:14:23.572273 25375 net.cpp:380] encode1_hadamard_gat_t=3 -> hadamard_gat_t=3
I1223 00:14:23.572335 25375 net.cpp:122] Setting up encode1_hadamard_gat_t=3
I1223 00:14:23.572342 25375 net.cpp:129] Top shape: 1 1 32 32 32 (32768)
I1223 00:14:23.572345 25375 net.cpp:137] Memory required for data: 25624832
I1223 00:14:23.572348 25375 layer_factory.hpp:77] Creating layer encode1_concat_hadamard_t=3
I1223 00:14:23.572355 25375 net.cpp:84] Creating Layer encode1_concat_hadamard_t=3
I1223 00:14:23.572360 25375 net.cpp:406] encode1_concat_hadamard_t=3 <- hadamard_in_t=3
I1223 00:14:23.572376 25375 net.cpp:406] encode1_concat_hadamard_t=3 <- hadamard_fog_t=3
I1223 00:14:23.572379 25375 net.cpp:406] encode1_concat_hadamard_t=3 <- hadamard_out_t=3
I1223 00:14:23.572381 25375 net.cpp:406] encode1_concat_hadamard_t=3 <- hadamard_gat_t=3
I1223 00:14:23.572386 25375 net.cpp:380] encode1_concat_hadamard_t=3 -> hadamard_t=3
I1223 00:14:23.572405 25375 net.cpp:122] Setting up encode1_concat_hadamard_t=3
I1223 00:14:23.572412 25375 net.cpp:129] Top shape: 1 1 128 32 32 (131072)
I1223 00:14:23.572414 25375 net.cpp:137] Memory required for data: 26149120
I1223 00:14:23.572417 25375 layer_factory.hpp:77] Creating layer encode1_gate_input_3
I1223 00:14:23.572422 25375 net.cpp:84] Creating Layer encode1_gate_input_3
I1223 00:14:23.572425 25375 net.cpp:406] encode1_gate_input_3 <- hidden->transform->2
I1223 00:14:23.572432 25375 net.cpp:406] encode1_gate_input_3 <- x->transform->t=3
I1223 00:14:23.572435 25375 net.cpp:406] encode1_gate_input_3 <- hadamard_t=3
I1223 00:14:23.572440 25375 net.cpp:380] encode1_gate_input_3 -> gate_input_3
I1223 00:14:23.572463 25375 net.cpp:122] Setting up encode1_gate_input_3
I1223 00:14:23.572469 25375 net.cpp:129] Top shape: 1 1 128 32 32 (131072)
I1223 00:14:23.572473 25375 net.cpp:137] Memory required for data: 26673408
I1223 00:14:23.572474 25375 layer_factory.hpp:77] Creating layer encode1_unit_t=3
I1223 00:14:23.572479 25375 net.cpp:84] Creating Layer encode1_unit_t=3
I1223 00:14:23.572481 25375 net.cpp:406] encode1_unit_t=3 <- c_t=2_encode1_unit_t=2_0_split_3
I1223 00:14:23.572485 25375 net.cpp:406] encode1_unit_t=3 <- gate_input_3
I1223 00:14:23.572489 25375 net.cpp:406] encode1_unit_t=3 <- cont_t=3_encode1_cont_slice_2_split_1
I1223 00:14:23.572494 25375 net.cpp:380] encode1_unit_t=3 -> c_t=3
I1223 00:14:23.572500 25375 net.cpp:380] encode1_unit_t=3 -> h_t=3
I1223 00:14:23.572546 25375 net.cpp:122] Setting up encode1_unit_t=3
I1223 00:14:23.572552 25375 net.cpp:129] Top shape: 1 1 32 32 32 (32768)
I1223 00:14:23.572556 25375 net.cpp:129] Top shape: 1 1 32 32 32 (32768)
I1223 00:14:23.572559 25375 net.cpp:137] Memory required for data: 26935552
I1223 00:14:23.572561 25375 layer_factory.hpp:77] Creating layer c_t=3_encode1_unit_t=3_0_split
I1223 00:14:23.572566 25375 net.cpp:84] Creating Layer c_t=3_encode1_unit_t=3_0_split
I1223 00:14:23.572569 25375 net.cpp:406] c_t=3_encode1_unit_t=3_0_split <- c_t=3
I1223 00:14:23.572576 25375 net.cpp:380] c_t=3_encode1_unit_t=3_0_split -> c_t=3_encode1_unit_t=3_0_split_0
I1223 00:14:23.572584 25375 net.cpp:380] c_t=3_encode1_unit_t=3_0_split -> c_t=3_encode1_unit_t=3_0_split_1
I1223 00:14:23.572592 25375 net.cpp:380] c_t=3_encode1_unit_t=3_0_split -> c_t=3_encode1_unit_t=3_0_split_2
I1223 00:14:23.572598 25375 net.cpp:380] c_t=3_encode1_unit_t=3_0_split -> c_t=3_encode1_unit_t=3_0_split_3
I1223 00:14:23.572661 25375 net.cpp:122] Setting up c_t=3_encode1_unit_t=3_0_split
I1223 00:14:23.572670 25375 net.cpp:129] Top shape: 1 1 32 32 32 (32768)
I1223 00:14:23.572674 25375 net.cpp:129] Top shape: 1 1 32 32 32 (32768)
I1223 00:14:23.572679 25375 net.cpp:129] Top shape: 1 1 32 32 32 (32768)
I1223 00:14:23.572681 25375 net.cpp:129] Top shape: 1 1 32 32 32 (32768)
I1223 00:14:23.572685 25375 net.cpp:137] Memory required for data: 27459840
I1223 00:14:23.572687 25375 layer_factory.hpp:77] Creating layer h_t=3_encode1_unit_t=3_1_split
I1223 00:14:23.572691 25375 net.cpp:84] Creating Layer h_t=3_encode1_unit_t=3_1_split
I1223 00:14:23.572695 25375 net.cpp:406] h_t=3_encode1_unit_t=3_1_split <- h_t=3
I1223 00:14:23.572700 25375 net.cpp:380] h_t=3_encode1_unit_t=3_1_split -> h_t=3_encode1_unit_t=3_1_split_0
I1223 00:14:23.572706 25375 net.cpp:380] h_t=3_encode1_unit_t=3_1_split -> h_t=3_encode1_unit_t=3_1_split_1
I1223 00:14:23.572741 25375 net.cpp:122] Setting up h_t=3_encode1_unit_t=3_1_split
I1223 00:14:23.572748 25375 net.cpp:129] Top shape: 1 1 32 32 32 (32768)
I1223 00:14:23.572752 25375 net.cpp:129] Top shape: 1 1 32 32 32 (32768)
I1223 00:14:23.572755 25375 net.cpp:137] Memory required for data: 27721984
I1223 00:14:23.572758 25375 layer_factory.hpp:77] Creating layer encode1_h_conted_t=3
I1223 00:14:23.572763 25375 net.cpp:84] Creating Layer encode1_h_conted_t=3
I1223 00:14:23.572767 25375 net.cpp:406] encode1_h_conted_t=3 <- h_t=3_encode1_unit_t=3_1_split_0
I1223 00:14:23.572772 25375 net.cpp:406] encode1_h_conted_t=3 <- cont_t=4_encode1_cont_slice_3_split_0
I1223 00:14:23.572777 25375 net.cpp:380] encode1_h_conted_t=3 -> h_conted_t=3
I1223 00:14:23.572851 25375 net.cpp:122] Setting up encode1_h_conted_t=3
I1223 00:14:23.572860 25375 net.cpp:129] Top shape: 1 1 32 32 32 (32768)
I1223 00:14:23.572863 25375 net.cpp:137] Memory required for data: 27853056
I1223 00:14:23.572866 25375 layer_factory.hpp:77] Creating layer encode1_hidden->transform->3
I1223 00:14:23.572875 25375 net.cpp:84] Creating Layer encode1_hidden->transform->3
I1223 00:14:23.572880 25375 net.cpp:406] encode1_hidden->transform->3 <- h_conted_t=3
I1223 00:14:23.572887 25375 net.cpp:380] encode1_hidden->transform->3 -> hidden->transform->3
I1223 00:14:23.573381 25375 net.cpp:122] Setting up encode1_hidden->transform->3
I1223 00:14:23.573390 25375 net.cpp:129] Top shape: 1 1 128 32 32 (131072)
I1223 00:14:23.573395 25375 net.cpp:137] Memory required for data: 28377344
I1223 00:14:23.573398 25375 net.cpp:465] Sharing parameters 'h->transform' owned by layer 'encode1_hidden->transform->0', param index 0
I1223 00:14:23.573401 25375 net.cpp:465] Sharing parameters 'h->transform_bias' owned by layer 'encode1_hidden->transform->0', param index 1
I1223 00:14:23.573405 25375 layer_factory.hpp:77] Creating layer encode1_hadamard->input_t=3
I1223 00:14:23.573412 25375 net.cpp:84] Creating Layer encode1_hadamard->input_t=3
I1223 00:14:23.573415 25375 net.cpp:406] encode1_hadamard->input_t=3 <- c_t=3_encode1_unit_t=3_0_split_0
I1223 00:14:23.573422 25375 net.cpp:380] encode1_hadamard->input_t=3 -> hadamard_in_t=4
I1223 00:14:23.573521 25375 net.cpp:122] Setting up encode1_hadamard->input_t=3
I1223 00:14:23.573529 25375 net.cpp:129] Top shape: 1 1 32 32 32 (32768)
I1223 00:14:23.573545 25375 net.cpp:137] Memory required for data: 28508416
I1223 00:14:23.573549 25375 net.cpp:465] Sharing parameters 'hadamard.input' owned by layer 'encode1_hadamard->input_t=0', param index 0
I1223 00:14:23.573551 25375 layer_factory.hpp:77] Creating layer encode1_hadamard->forget_t=3
I1223 00:14:23.573559 25375 net.cpp:84] Creating Layer encode1_hadamard->forget_t=3
I1223 00:14:23.573561 25375 net.cpp:406] encode1_hadamard->forget_t=3 <- c_t=3_encode1_unit_t=3_0_split_1
I1223 00:14:23.573567 25375 net.cpp:380] encode1_hadamard->forget_t=3 -> hadamard_fog_t=4
I1223 00:14:23.573650 25375 net.cpp:122] Setting up encode1_hadamard->forget_t=3
I1223 00:14:23.573658 25375 net.cpp:129] Top shape: 1 1 32 32 32 (32768)
I1223 00:14:23.573662 25375 net.cpp:137] Memory required for data: 28639488
I1223 00:14:23.573664 25375 net.cpp:465] Sharing parameters 'hadamard.forget' owned by layer 'encode1_hadamard->forget_t=0', param index 0
I1223 00:14:23.573668 25375 layer_factory.hpp:77] Creating layer encode1_hadamard->output_t=3
I1223 00:14:23.573673 25375 net.cpp:84] Creating Layer encode1_hadamard->output_t=3
I1223 00:14:23.573676 25375 net.cpp:406] encode1_hadamard->output_t=3 <- c_t=3_encode1_unit_t=3_0_split_2
I1223 00:14:23.573683 25375 net.cpp:380] encode1_hadamard->output_t=3 -> hadamard_out_t=4
I1223 00:14:23.573776 25375 net.cpp:122] Setting up encode1_hadamard->output_t=3
I1223 00:14:23.573782 25375 net.cpp:129] Top shape: 1 1 32 32 32 (32768)
I1223 00:14:23.573786 25375 net.cpp:137] Memory required for data: 28770560
I1223 00:14:23.573801 25375 net.cpp:465] Sharing parameters 'hadamard.output' owned by layer 'encode1_hadamard->output_t=0', param index 0
I1223 00:14:23.573806 25375 layer_factory.hpp:77] Creating layer encode1_hadamard_gat_t=4
I1223 00:14:23.573812 25375 net.cpp:84] Creating Layer encode1_hadamard_gat_t=4
I1223 00:14:23.573815 25375 net.cpp:380] encode1_hadamard_gat_t=4 -> hadamard_gat_t=4
I1223 00:14:23.573880 25375 net.cpp:122] Setting up encode1_hadamard_gat_t=4
I1223 00:14:23.573900 25375 net.cpp:129] Top shape: 1 1 32 32 32 (32768)
I1223 00:14:23.573904 25375 net.cpp:137] Memory required for data: 28901632
I1223 00:14:23.573906 25375 layer_factory.hpp:77] Creating layer encode1_concat_hadamard_t=4
I1223 00:14:23.573911 25375 net.cpp:84] Creating Layer encode1_concat_hadamard_t=4
I1223 00:14:23.573915 25375 net.cpp:406] encode1_concat_hadamard_t=4 <- hadamard_in_t=4
I1223 00:14:23.573932 25375 net.cpp:406] encode1_concat_hadamard_t=4 <- hadamard_fog_t=4
I1223 00:14:23.573936 25375 net.cpp:406] encode1_concat_hadamard_t=4 <- hadamard_out_t=4
I1223 00:14:23.573940 25375 net.cpp:406] encode1_concat_hadamard_t=4 <- hadamard_gat_t=4
I1223 00:14:23.573945 25375 net.cpp:380] encode1_concat_hadamard_t=4 -> hadamard_t=4
I1223 00:14:23.573982 25375 net.cpp:122] Setting up encode1_concat_hadamard_t=4
I1223 00:14:23.573987 25375 net.cpp:129] Top shape: 1 1 128 32 32 (131072)
I1223 00:14:23.573990 25375 net.cpp:137] Memory required for data: 29425920
I1223 00:14:23.573993 25375 layer_factory.hpp:77] Creating layer encode1_gate_input_4
I1223 00:14:23.574003 25375 net.cpp:84] Creating Layer encode1_gate_input_4
I1223 00:14:23.574007 25375 net.cpp:406] encode1_gate_input_4 <- hidden->transform->3
I1223 00:14:23.574012 25375 net.cpp:406] encode1_gate_input_4 <- x->transform->t=4
I1223 00:14:23.574015 25375 net.cpp:406] encode1_gate_input_4 <- hadamard_t=4
I1223 00:14:23.574020 25375 net.cpp:380] encode1_gate_input_4 -> gate_input_4
I1223 00:14:23.574048 25375 net.cpp:122] Setting up encode1_gate_input_4
I1223 00:14:23.574054 25375 net.cpp:129] Top shape: 1 1 128 32 32 (131072)
I1223 00:14:23.574057 25375 net.cpp:137] Memory required for data: 29950208
I1223 00:14:23.574060 25375 layer_factory.hpp:77] Creating layer encode1_unit_t=4
I1223 00:14:23.574065 25375 net.cpp:84] Creating Layer encode1_unit_t=4
I1223 00:14:23.574069 25375 net.cpp:406] encode1_unit_t=4 <- c_t=3_encode1_unit_t=3_0_split_3
I1223 00:14:23.574072 25375 net.cpp:406] encode1_unit_t=4 <- gate_input_4
I1223 00:14:23.574076 25375 net.cpp:406] encode1_unit_t=4 <- cont_t=4_encode1_cont_slice_3_split_1
I1223 00:14:23.574081 25375 net.cpp:380] encode1_unit_t=4 -> c_t=4
I1223 00:14:23.574087 25375 net.cpp:380] encode1_unit_t=4 -> h_t=4
I1223 00:14:23.574136 25375 net.cpp:122] Setting up encode1_unit_t=4
I1223 00:14:23.574142 25375 net.cpp:129] Top shape: 1 1 32 32 32 (32768)
I1223 00:14:23.574146 25375 net.cpp:129] Top shape: 1 1 32 32 32 (32768)
I1223 00:14:23.574148 25375 net.cpp:137] Memory required for data: 30212352
I1223 00:14:23.574151 25375 layer_factory.hpp:77] Creating layer c_t=4_encode1_unit_t=4_0_split
I1223 00:14:23.574156 25375 net.cpp:84] Creating Layer c_t=4_encode1_unit_t=4_0_split
I1223 00:14:23.574159 25375 net.cpp:406] c_t=4_encode1_unit_t=4_0_split <- c_t=4
I1223 00:14:23.574164 25375 net.cpp:380] c_t=4_encode1_unit_t=4_0_split -> c_t=4_encode1_unit_t=4_0_split_0
I1223 00:14:23.574172 25375 net.cpp:380] c_t=4_encode1_unit_t=4_0_split -> c_t=4_encode1_unit_t=4_0_split_1
I1223 00:14:23.574179 25375 net.cpp:380] c_t=4_encode1_unit_t=4_0_split -> c_t=4_encode1_unit_t=4_0_split_2
I1223 00:14:23.574187 25375 net.cpp:380] c_t=4_encode1_unit_t=4_0_split -> c_t=4_encode1_unit_t=4_0_split_3
I1223 00:14:23.574239 25375 net.cpp:122] Setting up c_t=4_encode1_unit_t=4_0_split
I1223 00:14:23.574246 25375 net.cpp:129] Top shape: 1 1 32 32 32 (32768)
I1223 00:14:23.574250 25375 net.cpp:129] Top shape: 1 1 32 32 32 (32768)
I1223 00:14:23.574254 25375 net.cpp:129] Top shape: 1 1 32 32 32 (32768)
I1223 00:14:23.574257 25375 net.cpp:129] Top shape: 1 1 32 32 32 (32768)
I1223 00:14:23.574260 25375 net.cpp:137] Memory required for data: 30736640
I1223 00:14:23.574264 25375 layer_factory.hpp:77] Creating layer h_t=4_encode1_unit_t=4_1_split
I1223 00:14:23.574270 25375 net.cpp:84] Creating Layer h_t=4_encode1_unit_t=4_1_split
I1223 00:14:23.574275 25375 net.cpp:406] h_t=4_encode1_unit_t=4_1_split <- h_t=4
I1223 00:14:23.574280 25375 net.cpp:380] h_t=4_encode1_unit_t=4_1_split -> h_t=4_encode1_unit_t=4_1_split_0
I1223 00:14:23.574285 25375 net.cpp:380] h_t=4_encode1_unit_t=4_1_split -> h_t=4_encode1_unit_t=4_1_split_1
I1223 00:14:23.574318 25375 net.cpp:122] Setting up h_t=4_encode1_unit_t=4_1_split
I1223 00:14:23.574324 25375 net.cpp:129] Top shape: 1 1 32 32 32 (32768)
I1223 00:14:23.574328 25375 net.cpp:129] Top shape: 1 1 32 32 32 (32768)
I1223 00:14:23.574331 25375 net.cpp:137] Memory required for data: 30998784
I1223 00:14:23.574334 25375 layer_factory.hpp:77] Creating layer encode1_h_conted_t=4
I1223 00:14:23.574339 25375 net.cpp:84] Creating Layer encode1_h_conted_t=4
I1223 00:14:23.574344 25375 net.cpp:406] encode1_h_conted_t=4 <- h_t=4_encode1_unit_t=4_1_split_0
I1223 00:14:23.574348 25375 net.cpp:406] encode1_h_conted_t=4 <- cont_t=5_encode1_cont_slice_4_split_0
I1223 00:14:23.574353 25375 net.cpp:380] encode1_h_conted_t=4 -> h_conted_t=4
I1223 00:14:23.574430 25375 net.cpp:122] Setting up encode1_h_conted_t=4
I1223 00:14:23.574437 25375 net.cpp:129] Top shape: 1 1 32 32 32 (32768)
I1223 00:14:23.574440 25375 net.cpp:137] Memory required for data: 31129856
I1223 00:14:23.574443 25375 layer_factory.hpp:77] Creating layer encode1_hidden->transform->4
I1223 00:14:23.574452 25375 net.cpp:84] Creating Layer encode1_hidden->transform->4
I1223 00:14:23.574456 25375 net.cpp:406] encode1_hidden->transform->4 <- h_conted_t=4
I1223 00:14:23.574463 25375 net.cpp:380] encode1_hidden->transform->4 -> hidden->transform->4
I1223 00:14:23.574949 25375 net.cpp:122] Setting up encode1_hidden->transform->4
I1223 00:14:23.574957 25375 net.cpp:129] Top shape: 1 1 128 32 32 (131072)
I1223 00:14:23.574959 25375 net.cpp:137] Memory required for data: 31654144
I1223 00:14:23.574964 25375 net.cpp:465] Sharing parameters 'h->transform' owned by layer 'encode1_hidden->transform->0', param index 0
I1223 00:14:23.574967 25375 net.cpp:465] Sharing parameters 'h->transform_bias' owned by layer 'encode1_hidden->transform->0', param index 1
I1223 00:14:23.574970 25375 layer_factory.hpp:77] Creating layer encode1_hadamard->input_t=4
I1223 00:14:23.574977 25375 net.cpp:84] Creating Layer encode1_hadamard->input_t=4
I1223 00:14:23.574981 25375 net.cpp:406] encode1_hadamard->input_t=4 <- c_t=4_encode1_unit_t=4_0_split_0
I1223 00:14:23.574987 25375 net.cpp:380] encode1_hadamard->input_t=4 -> hadamard_in_t=5
I1223 00:14:23.575073 25375 net.cpp:122] Setting up encode1_hadamard->input_t=4
I1223 00:14:23.575080 25375 net.cpp:129] Top shape: 1 1 32 32 32 (32768)
I1223 00:14:23.575083 25375 net.cpp:137] Memory required for data: 31785216
I1223 00:14:23.575088 25375 net.cpp:465] Sharing parameters 'hadamard.input' owned by layer 'encode1_hadamard->input_t=0', param index 0
I1223 00:14:23.575090 25375 layer_factory.hpp:77] Creating layer encode1_hadamard->forget_t=4
I1223 00:14:23.575096 25375 net.cpp:84] Creating Layer encode1_hadamard->forget_t=4
I1223 00:14:23.575101 25375 net.cpp:406] encode1_hadamard->forget_t=4 <- c_t=4_encode1_unit_t=4_0_split_1
I1223 00:14:23.575106 25375 net.cpp:380] encode1_hadamard->forget_t=4 -> hadamard_fog_t=5
I1223 00:14:23.575230 25375 net.cpp:122] Setting up encode1_hadamard->forget_t=4
I1223 00:14:23.575237 25375 net.cpp:129] Top shape: 1 1 32 32 32 (32768)
I1223 00:14:23.575240 25375 net.cpp:137] Memory required for data: 31916288
I1223 00:14:23.575244 25375 net.cpp:465] Sharing parameters 'hadamard.forget' owned by layer 'encode1_hadamard->forget_t=0', param index 0
I1223 00:14:23.575248 25375 layer_factory.hpp:77] Creating layer encode1_hadamard->output_t=4
I1223 00:14:23.575253 25375 net.cpp:84] Creating Layer encode1_hadamard->output_t=4
I1223 00:14:23.575258 25375 net.cpp:406] encode1_hadamard->output_t=4 <- c_t=4_encode1_unit_t=4_0_split_2
I1223 00:14:23.575263 25375 net.cpp:380] encode1_hadamard->output_t=4 -> hadamard_out_t=5
I1223 00:14:23.575343 25375 net.cpp:122] Setting up encode1_hadamard->output_t=4
I1223 00:14:23.575350 25375 net.cpp:129] Top shape: 1 1 32 32 32 (32768)
I1223 00:14:23.575353 25375 net.cpp:137] Memory required for data: 32047360
I1223 00:14:23.575356 25375 net.cpp:465] Sharing parameters 'hadamard.output' owned by layer 'encode1_hadamard->output_t=0', param index 0
I1223 00:14:23.575359 25375 layer_factory.hpp:77] Creating layer encode1_hadamard_gat_t=5
I1223 00:14:23.575366 25375 net.cpp:84] Creating Layer encode1_hadamard_gat_t=5
I1223 00:14:23.575372 25375 net.cpp:380] encode1_hadamard_gat_t=5 -> hadamard_gat_t=5
I1223 00:14:23.575436 25375 net.cpp:122] Setting up encode1_hadamard_gat_t=5
I1223 00:14:23.575456 25375 net.cpp:129] Top shape: 1 1 32 32 32 (32768)
I1223 00:14:23.575459 25375 net.cpp:137] Memory required for data: 32178432
I1223 00:14:23.575462 25375 layer_factory.hpp:77] Creating layer encode1_concat_hadamard_t=5
I1223 00:14:23.575467 25375 net.cpp:84] Creating Layer encode1_concat_hadamard_t=5
I1223 00:14:23.575470 25375 net.cpp:406] encode1_concat_hadamard_t=5 <- hadamard_in_t=5
I1223 00:14:23.575475 25375 net.cpp:406] encode1_concat_hadamard_t=5 <- hadamard_fog_t=5
I1223 00:14:23.575479 25375 net.cpp:406] encode1_concat_hadamard_t=5 <- hadamard_out_t=5
I1223 00:14:23.575484 25375 net.cpp:406] encode1_concat_hadamard_t=5 <- hadamard_gat_t=5
I1223 00:14:23.575501 25375 net.cpp:380] encode1_concat_hadamard_t=5 -> hadamard_t=5
I1223 00:14:23.575522 25375 net.cpp:122] Setting up encode1_concat_hadamard_t=5
I1223 00:14:23.575528 25375 net.cpp:129] Top shape: 1 1 128 32 32 (131072)
I1223 00:14:23.575531 25375 net.cpp:137] Memory required for data: 32702720
I1223 00:14:23.575534 25375 layer_factory.hpp:77] Creating layer encode1_gate_input_5
I1223 00:14:23.575541 25375 net.cpp:84] Creating Layer encode1_gate_input_5
I1223 00:14:23.575544 25375 net.cpp:406] encode1_gate_input_5 <- hidden->transform->4
I1223 00:14:23.575549 25375 net.cpp:406] encode1_gate_input_5 <- x->transform->t=5
I1223 00:14:23.575552 25375 net.cpp:406] encode1_gate_input_5 <- hadamard_t=5
I1223 00:14:23.575559 25375 net.cpp:380] encode1_gate_input_5 -> gate_input_5
…
I1223 00:14:23.585968 25375 net.cpp:380] encode1_unit_t=11 -> c_t=11
I1223 00:14:23.585974 25375 net.cpp:380] encode1_unit_t=11 -> h_t=11
I1223 00:14:23.586019 25375 net.cpp:122] Setting up encode1_unit_t=11
I1223 00:14:23.586026 25375 net.cpp:129] Top shape: 1 1 32 32 32 (32768)
I1223 00:14:23.586030 25375 net.cpp:129] Top shape: 1 1 32 32 32 (32768)
I1223 00:14:23.586033 25375 net.cpp:137] Memory required for data: 53149952
I1223 00:14:23.586035 25375 layer_factory.hpp:77] Creating layer c_t=11_encode1_unit_t=11_0_split
I1223 00:14:23.586045 25375 net.cpp:84] Creating Layer c_t=11_encode1_unit_t=11_0_split
I1223 00:14:23.586048 25375 net.cpp:406] c_t=11_encode1_unit_t=11_0_split <- c_t=11
I1223 00:14:23.586055 25375 net.cpp:380] c_t=11_encode1_unit_t=11_0_split -> c_t=11_encode1_unit_t=11_0_split_0
I1223 00:14:23.586061 25375 net.cpp:380] c_t=11_encode1_unit_t=11_0_split -> c_t=11_encode1_unit_t=11_0_split_1
I1223 00:14:23.586068 25375 net.cpp:380] c_t=11_encode1_unit_t=11_0_split -> c_t=11_encode1_unit_t=11_0_split_2
I1223 00:14:23.586073 25375 net.cpp:380] c_t=11_encode1_unit_t=11_0_split -> c_t=11_encode1_unit_t=11_0_split_3
I1223 00:14:23.586140 25375 net.cpp:122] Setting up c_t=11_encode1_unit_t=11_0_split
I1223 00:14:23.586146 25375 net.cpp:129] Top shape: 1 1 32 32 32 (32768)
I1223 00:14:23.586150 25375 net.cpp:129] Top shape: 1 1 32 32 32 (32768)
I1223 00:14:23.586167 25375 net.cpp:129] Top shape: 1 1 32 32 32 (32768)
I1223 00:14:23.586171 25375 net.cpp:129] Top shape: 1 1 32 32 32 (32768)
I1223 00:14:23.586174 25375 net.cpp:137] Memory required for data: 53674240
I1223 00:14:23.586177 25375 layer_factory.hpp:77] Creating layer h_t=11_encode1_unit_t=11_1_split
I1223 00:14:23.586181 25375 net.cpp:84] Creating Layer h_t=11_encode1_unit_t=11_1_split
I1223 00:14:23.586184 25375 net.cpp:406] h_t=11_encode1_unit_t=11_1_split <- h_t=11
I1223 00:14:23.586190 25375 net.cpp:380] h_t=11_encode1_unit_t=11_1_split -> h_t=11_encode1_unit_t=11_1_split_0
I1223 00:14:23.586196 25375 net.cpp:380] h_t=11_encode1_unit_t=11_1_split -> h_t=11_encode1_unit_t=11_1_split_1
I1223 00:14:23.586241 25375 net.cpp:122] Setting up h_t=11_encode1_unit_t=11_1_split
I1223 00:14:23.586246 25375 net.cpp:129] Top shape: 1 1 32 32 32 (32768)
I1223 00:14:23.586249 25375 net.cpp:129] Top shape: 1 1 32 32 32 (32768)
I1223 00:14:23.586252 25375 net.cpp:137] Memory required for data: 53936384
I1223 00:14:23.586256 25375 layer_factory.hpp:77] Creating layer encode1_h_conted_t=11
I1223 00:14:23.586275 25375 net.cpp:84] Creating Layer encode1_h_conted_t=11
I1223 00:14:23.586278 25375 net.cpp:406] encode1_h_conted_t=11 <- h_t=11_encode1_unit_t=11_1_split_0
I1223 00:14:23.586282 25375 net.cpp:406] encode1_h_conted_t=11 <- cont_t=12_encode1_cont_slice_11_split_0
I1223 00:14:23.586288 25375 net.cpp:380] encode1_h_conted_t=11 -> h_conted_t=11
I1223 00:14:23.586362 25375 net.cpp:122] Setting up encode1_h_conted_t=11
I1223 00:14:23.586369 25375 net.cpp:129] Top shape: 1 1 32 32 32 (32768)
I1223 00:14:23.586371 25375 net.cpp:137] Memory required for data: 54067456
I1223 00:14:23.586375 25375 layer_factory.hpp:77] Creating layer encode1_hidden->transform->11
I1223 00:14:23.586382 25375 net.cpp:84] Creating Layer encode1_hidden->transform->11
I1223 00:14:23.586386 25375 net.cpp:406] encode1_hidden->transform->11 <- h_conted_t=11
I1223 00:14:23.586393 25375 net.cpp:380] encode1_hidden->transform->11 -> hidden->transform->11
I1223 00:14:23.586886 25375 net.cpp:122] Setting up encode1_hidden->transform->11
I1223 00:14:23.586894 25375 net.cpp:129] Top shape: 1 1 128 32 32 (131072)
I1223 00:14:23.586897 25375 net.cpp:137] Memory required for data: 54591744
I1223 00:14:23.586900 25375 net.cpp:465] Sharing parameters 'h->transform' owned by layer 'encode1_hidden->transform->0', param index 0
I1223 00:14:23.586905 25375 net.cpp:465] Sharing parameters 'h->transform_bias' owned by layer 'encode1_hidden->transform->0', param index 1
I1223 00:14:23.586908 25375 layer_factory.hpp:77] Creating layer encode1_hadamard->input_t=11
I1223 00:14:23.586913 25375 net.cpp:84] Creating Layer encode1_hadamard->input_t=11
I1223 00:14:23.586916 25375 net.cpp:406] encode1_hadamard->input_t=11 <- c_t=11_encode1_unit_t=11_0_split_0
I1223 00:14:23.586923 25375 net.cpp:380] encode1_hadamard->input_t=11 -> hadamard_in_t=12
I1223 00:14:23.587009 25375 net.cpp:122] Setting up encode1_hadamard->input_t=11
I1223 00:14:23.587018 25375 net.cpp:129] Top shape: 1 1 32 32 32 (32768)
I1223 00:14:23.587020 25375 net.cpp:137] Memory required for data: 54722816
I1223 00:14:23.587024 25375 net.cpp:465] Sharing parameters 'hadamard.input' owned by layer 'encode1_hadamard->input_t=0', param index 0
I1223 00:14:23.587028 25375 layer_factory.hpp:77] Creating layer encode1_hadamard->forget_t=11
I1223 00:14:23.587033 25375 net.cpp:84] Creating Layer encode1_hadamard->forget_t=11
I1223 00:14:23.587035 25375 net.cpp:406] encode1_hadamard->forget_t=11 <- c_t=11_encode1_unit_t=11_0_split_1
I1223 00:14:23.587043 25375 net.cpp:380] encode1_hadamard->forget_t=11 -> hadamard_fog_t=12
I1223 00:14:23.587139 25375 net.cpp:122] Setting up encode1_hadamard->forget_t=11
I1223 00:14:23.587146 25375 net.cpp:129] Top shape: 1 1 32 32 32 (32768)
I1223 00:14:23.587149 25375 net.cpp:137] Memory required for data: 54853888
I1223 00:14:23.587153 25375 net.cpp:465] Sharing parameters 'hadamard.forget' owned by layer 'encode1_hadamard->forget_t=0', param index 0
I1223 00:14:23.587157 25375 layer_factory.hpp:77] Creating layer encode1_hadamard->output_t=11
I1223 00:14:23.587174 25375 net.cpp:84] Creating Layer encode1_hadamard->output_t=11
I1223 00:14:23.587177 25375 net.cpp:406] encode1_hadamard->output_t=11 <- c_t=11_encode1_unit_t=11_0_split_2
I1223 00:14:23.587196 25375 net.cpp:380] encode1_hadamard->output_t=11 -> hadamard_out_t=12
I1223 00:14:23.587292 25375 net.cpp:122] Setting up encode1_hadamard->output_t=11
I1223 00:14:23.587298 25375 net.cpp:129] Top shape: 1 1 32 32 32 (32768)
I1223 00:14:23.587301 25375 net.cpp:137] Memory required for data: 54984960
I1223 00:14:23.587306 25375 net.cpp:465] Sharing parameters 'hadamard.output' owned by layer 'encode1_hadamard->output_t=0', param index 0
I1223 00:14:23.587307 25375 layer_factory.hpp:77] Creating layer encode1_hadamard_gat_t=12
I1223 00:14:23.587326 25375 net.cpp:84] Creating Layer encode1_hadamard_gat_t=12
I1223 00:14:23.587332 25375 net.cpp:380] encode1_hadamard_gat_t=12 -> hadamard_gat_t=12
I1223 00:14:23.588165 25375 net.cpp:122] Setting up encode1_hadamard_gat_t=12
I1223 00:14:23.588176 25375 net.cpp:129] Top shape: 1 1 32 32 32 (32768)
I1223 00:14:23.588179 25375 net.cpp:137] Memory required for data: 55116032
I1223 00:14:23.588182 25375 layer_factory.hpp:77] Creating layer encode1_concat_hadamard_t=12
I1223 00:14:23.588188 25375 net.cpp:84] Creating Layer encode1_concat_hadamard_t=12
I1223 00:14:23.588192 25375 net.cpp:406] encode1_concat_hadamard_t=12 <- hadamard_in_t=12
I1223 00:14:23.588197 25375 net.cpp:406] encode1_concat_hadamard_t=12 <- hadamard_fog_t=12
I1223 00:14:23.588201 25375 net.cpp:406] encode1_concat_hadamard_t=12 <- hadamard_out_t=12
I1223 00:14:23.588204 25375 net.cpp:406] encode1_concat_hadamard_t=12 <- hadamard_gat_t=12
I1223 00:14:23.588224 25375 net.cpp:380] encode1_concat_hadamard_t=12 -> hadamard_t=12
I1223 00:14:23.588253 25375 net.cpp:122] Setting up encode1_concat_hadamard_t=12
I1223 00:14:23.588260 25375 net.cpp:129] Top shape: 1 1 128 32 32 (131072)
I1223 00:14:23.588263 25375 net.cpp:137] Memory required for data: 55640320
I1223 00:14:23.588265 25375 layer_factory.hpp:77] Creating layer encode1_gate_input_12
I1223 00:14:23.588270 25375 net.cpp:84] Creating Layer encode1_gate_input_12
I1223 00:14:23.588274 25375 net.cpp:406] encode1_gate_input_12 <- hidden->transform->11
I1223 00:14:23.588279 25375 net.cpp:406] encode1_gate_input_12 <- x->transform->t=12
I1223 00:14:23.588281 25375 net.cpp:406] encode1_gate_input_12 <- hadamard_t=12
I1223 00:14:23.588286 25375 net.cpp:380] encode1_gate_input_12 -> gate_input_12
I1223 00:14:23.588361 25375 net.cpp:122] Setting up encode1_gate_input_12
I1223 00:14:23.588369 25375 net.cpp:129] Top shape: 1 1 128 32 32 (131072)
I1223 00:14:23.588372 25375 net.cpp:137] Memory required for data: 56164608
I1223 00:14:23.588374 25375 layer_factory.hpp:77] Creating layer encode1_unit_t=12
I1223 00:14:23.588394 25375 net.cpp:84] Creating Layer encode1_unit_t=12
I1223 00:14:23.588398 25375 net.cpp:406] encode1_unit_t=12 <- c_t=11_encode1_unit_t=11_0_split_3
I1223 00:14:23.588402 25375 net.cpp:406] encode1_unit_t=12 <- gate_input_12
I1223 00:14:23.588407 25375 net.cpp:406] encode1_unit_t=12 <- cont_t=12_encode1_cont_slice_11_split_1
I1223 00:14:23.588412 25375 net.cpp:380] encode1_unit_t=12 -> c_t=12
I1223 00:14:23.588418 25375 net.cpp:380] encode1_unit_t=12 -> h_t=12
I1223 00:14:23.588477 25375 net.cpp:122] Setting up encode1_unit_t=12
I1223 00:14:23.588485 25375 net.cpp:129] Top shape: 1 1 32 32 32 (32768)
I1223 00:14:23.588488 25375 net.cpp:129] Top shape: 1 1 32 32 32 (32768)
I1223 00:14:23.588490 25375 net.cpp:137] Memory required for data: 56426752
I1223 00:14:23.588493 25375 layer_factory.hpp:77] Creating layer c_t=12_encode1_unit_t=12_0_split
I1223 00:14:23.588512 25375 net.cpp:84] Creating Layer c_t=12_encode1_unit_t=12_0_split
I1223 00:14:23.588515 25375 net.cpp:406] c_t=12_encode1_unit_t=12_0_split <- c_t=12
I1223 00:14:23.588521 25375 net.cpp:380] c_t=12_encode1_unit_t=12_0_split -> c_t=12_encode1_unit_t=12_0_split_0
I1223 00:14:23.588529 25375 net.cpp:380] c_t=12_encode1_unit_t=12_0_split -> c_t=12_encode1_unit_t=12_0_split_1
I1223 00:14:23.588536 25375 net.cpp:380] c_t=12_encode1_unit_t=12_0_split -> c_t=12_encode1_unit_t=12_0_split_2
I1223 00:14:23.588541 25375 net.cpp:380] c_t=12_encode1_unit_t=12_0_split -> c_t=12_encode1_unit_t=12_0_split_3
I1223 00:14:23.588629 25375 net.cpp:122] Setting up c_t=12_encode1_unit_t=12_0_split
I1223 00:14:23.588636 25375 net.cpp:129] Top shape: 1 1 32 32 32 (32768)
I1223 00:14:23.588640 25375 net.cpp:129] Top shape: 1 1 32 32 32 (32768)
I1223 00:14:23.588644 25375 net.cpp:129] Top shape: 1 1 32 32 32 (32768)
I1223 00:14:23.588649 25375 net.cpp:129] Top shape: 1 1 32 32 32 (32768)
I1223 00:14:23.588650 25375 net.cpp:137] Memory required for data: 56951040
I1223 00:14:23.588666 25375 layer_factory.hpp:77] Creating layer h_t=12_encode1_unit_t=12_1_split
I1223 00:14:23.588672 25375 net.cpp:84] Creating Layer h_t=12_encode1_unit_t=12_1_split
I1223 00:14:23.588676 25375 net.cpp:406] h_t=12_encode1_unit_t=12_1_split <- h_t=12
I1223 00:14:23.588682 25375 net.cpp:380] h_t=12_encode1_unit_t=12_1_split -> h_t=12_encode1_unit_t=12_1_split_0
I1223 00:14:23.588688 25375 net.cpp:380] h_t=12_encode1_unit_t=12_1_split -> h_t=12_encode1_unit_t=12_1_split_1
I1223 00:14:23.588737 25375 net.cpp:122] Setting up h_t=12_encode1_unit_t=12_1_split
I1223 00:14:23.588757 25375 net.cpp:129] Top shape: 1 1 32 32 32 (32768)
I1223 00:14:23.588760 25375 net.cpp:129] Top shape: 1 1 32 32 32 (32768)
I1223 00:14:23.588763 25375 net.cpp:137] Memory required for data: 57213184
I1223 00:14:23.588765 25375 layer_factory.hpp:77] Creating layer encode1_h_conted_t=12
I1223 00:14:23.588785 25375 net.cpp:84] Creating Layer encode1_h_conted_t=12
I1223 00:14:23.588789 25375 net.cpp:406] encode1_h_conted_t=12 <- h_t=12_encode1_unit_t=12_1_split_0
I1223 00:14:23.588793 25375 net.cpp:406] encode1_h_conted_t=12 <- cont_t=13_encode1_cont_slice_12_split_0
I1223 00:14:23.588798 25375 net.cpp:380] encode1_h_conted_t=12 -> h_conted_t=12
I1223 00:14:23.588886 25375 net.cpp:122] Setting up encode1_h_conted_t=12
I1223 00:14:23.588894 25375 net.cpp:129] Top shape: 1 1 32 32 32 (32768)
I1223 00:14:23.588896 25375 net.cpp:137] Memory required for data: 57344256
I1223 00:14:23.588899 25375 layer_factory.hpp:77] Creating layer encode1_hidden->transform->12
I1223 00:14:23.588923 25375 net.cpp:84] Creating Layer encode1_hidden->transform->12
I1223 00:14:23.588940 25375 net.cpp:406] encode1_hidden->transform->12 <- h_conted_t=12
I1223 00:14:23.588946 25375 net.cpp:380] encode1_hidden->transform->12 -> hidden->transform->12
I1223 00:14:23.589444 25375 net.cpp:122] Setting up encode1_hidden->transform->12
I1223 00:14:23.589453 25375 net.cpp:129] Top shape: 1 1 128 32 32 (131072)
I1223 00:14:23.589457 25375 net.cpp:137] Memory required for data: 57868544
I1223 00:14:23.589459 25375 net.cpp:465] Sharing parameters 'h->transform' owned by layer 'encode1_hidden->transform->0', param index 0
I1223 00:14:23.589484 25375 net.cpp:465] Sharing parameters 'h->transform_bias' owned by layer 'encode1_hidden->transform->0', param index 1
I1223 00:14:23.589503 25375 layer_factory.hpp:77] Creating layer encode1_hadamard->input_t=12
I1223 00:14:23.589509 25375 net.cpp:84] Creating Layer encode1_hadamard->input_t=12
I1223 00:14:23.589512 25375 net.cpp:406] encode1_hadamard->input_t=12 <- c_t=12_encode1_unit_t=12_0_split_0
I1223 00:14:23.589519 25375 net.cpp:380] encode1_hadamard->input_t=12 -> hadamard_in_t=13
I1223 00:14:23.589622 25375 net.cpp:122] Setting up encode1_hadamard->input_t=12
I1223 00:14:23.589628 25375 net.cpp:129] Top shape: 1 1 32 32 32 (32768)
I1223 00:14:23.589632 25375 net.cpp:137] Memory required for data: 57999616
I1223 00:14:23.589634 25375 net.cpp:465] Sharing parameters 'hadamard.input' owned by layer 'encode1_hadamard->input_t=0', param index 0
I1223 00:14:23.589637 25375 layer_factory.hpp:77] Creating layer encode1_hadamard->forget_t=12
I1223 00:14:23.589658 25375 net.cpp:84] Creating Layer encode1_hadamard->forget_t=12
I1223 00:14:23.589661 25375 net.cpp:406] encode1_hadamard->forget_t=12 <- c_t=12_encode1_unit_t=12_0_split_1
I1223 00:14:23.589668 25375 net.cpp:380] encode1_hadamard->forget_t=12 -> hadamard_fog_t=13
I1223 00:14:23.589764 25375 net.cpp:122] Setting up encode1_hadamard->forget_t=12
I1223 00:14:23.589771 25375 net.cpp:129] Top shape: 1 1 32 32 32 (32768)
I1223 00:14:23.589773 25375 net.cpp:137] Memory required for data: 58130688
I1223 00:14:23.589776 25375 net.cpp:465] Sharing parameters 'hadamard.forget' owned by layer 'encode1_hadamard->forget_t=0', param index 0
I1223 00:14:23.589781 25375 layer_factory.hpp:77] Creating layer encode1_hadamard->output_t=12
I1223 00:14:23.589800 25375 net.cpp:84] Creating Layer encode1_hadamard->output_t=12
I1223 00:14:23.589803 25375 net.cpp:406] encode1_hadamard->output_t=12 <- c_t=12_encode1_unit_t=12_0_split_2
I1223 00:14:23.589808 25375 net.cpp:380] encode1_hadamard->output_t=12 -> hadamard_out_t=13
I1223 00:14:23.589916 25375 net.cpp:122] Setting up encode1_hadamard->output_t=12
I1223 00:14:23.589923 25375 net.cpp:129] Top shape: 1 1 32 32 32 (32768)
I1223 00:14:23.589926 25375 net.cpp:137] Memory required for data: 58261760
I1223 00:14:23.589929 25375 net.cpp:465] Sharing parameters 'hadamard.output' owned by layer 'encode1_hadamard->output_t=0', param index 0
I1223 00:14:23.589932 25375 layer_factory.hpp:77] Creating layer encode1_hadamard_gat_t=13
I1223 00:14:23.589938 25375 net.cpp:84] Creating Layer encode1_hadamard_gat_t=13
I1223 00:14:23.589957 25375 net.cpp:380] encode1_hadamard_gat_t=13 -> hadamard_gat_t=13
I1223 00:14:23.590020 25375 net.cpp:122] Setting up encode1_hadamard_gat_t=13
I1223 00:14:23.590029 25375 net.cpp:129] Top shape: 1 1 32 32 32 (32768)
I1223 00:14:23.590030 25375 net.cpp:137] Memory required for data: 58392832
I1223 00:14:23.590034 25375 layer_factory.hpp:77] Creating layer encode1_concat_hadamard_t=13
I1223 00:14:23.590039 25375 net.cpp:84] Creating Layer encode1_concat_hadamard_t=13
I1223 00:14:23.590057 25375 net.cpp:406] encode1_concat_hadamard_t=13 <- hadamard_in_t=13
I1223 00:14:23.590061 25375 net.cpp:406] encode1_concat_hadamard_t=13 <- hadamard_fog_t=13
I1223 00:14:23.590065 25375 net.cpp:406] encode1_concat_hadamard_t=13 <- hadamard_out_t=13
I1223 00:14:23.590068 25375 net.cpp:406] encode1_concat_hadamard_t=13 <- hadamard_gat_t=13
I1223 00:14:23.590073 25375 net.cpp:380] encode1_concat_hadamard_t=13 -> hadamard_t=13
I1223 00:14:23.590111 25375 net.cpp:122] Setting up encode1_concat_hadamard_t=13
I1223 00:14:23.590118 25375 net.cpp:129] Top shape: 1 1 128 32 32 (131072)
I1223 00:14:23.590121 25375 net.cpp:137] Memory required for data: 58917120
I1223 00:14:23.590124 25375 layer_factory.hpp:77] Creating layer encode1_gate_input_13
I1223 00:14:23.590128 25375 net.cpp:84] Creating Layer encode1_gate_input_13
I1223 00:14:23.590132 25375 net.cpp:406] encode1_gate_input_13 <- hidden->transform->12
I1223 00:14:23.590137 25375 net.cpp:406] encode1_gate_input_13 <- x->transform->t=13
I1223 00:14:23.590140 25375 net.cpp:406] encode1_gate_input_13 <- hadamard_t=13
I1223 00:14:23.590147 25375 net.cpp:380] encode1_gate_input_13 -> gate_input_13
I1223 00:14:23.590181 25375 net.cpp:122] Setting up encode1_gate_input_13
I1223 00:14:23.590186 25375 net.cpp:129] Top shape: 1 1 128 32 32 (131072)
I1223 00:14:23.590189 25375 net.cpp:137] Memory required for data: 59441408
I1223 00:14:23.590205 25375 layer_factory.hpp:77] Creating layer encode1_unit_t=13
I1223 00:14:23.590212 25375 net.cpp:84] Creating Layer encode1_unit_t=13
I1223 00:14:23.590215 25375 net.cpp:406] encode1_unit_t=13 <- c_t=12_encode1_unit_t=12_0_split_3
I1223 00:14:23.590219 25375 net.cpp:406] encode1_unit_t=13 <- gate_input_13
I1223 00:14:23.590224 25375 net.cpp:406] encode1_unit_t=13 <- cont_t=13_encode1_cont_slice_12_split_1
I1223 00:14:23.590229 25375 net.cpp:380] encode1_unit_t=13 -> c_t=13
I1223 00:14:23.590234 25375 net.cpp:380] encode1_unit_t=13 -> h_t=13
I1223 00:14:23.590281 25375 net.cpp:122] Setting up encode1_unit_t=13
I1223 00:14:23.590288 25375 net.cpp:129] Top shape: 1 1 32 32 32 (32768)
I1223 00:14:23.590292 25375 net.cpp:129] Top shape: 1 1 32 32 32 (32768)
I1223 00:14:23.590296 25375 net.cpp:137] Memory required for data: 59703552
I1223 00:14:23.590298 25375 layer_factory.hpp:77] Creating layer c_t=13_encode1_unit_t=13_0_split
I1223 00:14:23.590303 25375 net.cpp:84] Creating Layer c_t=13_encode1_unit_t=13_0_split
I1223 00:14:23.590307 25375 net.cpp:406] c_t=13_encode1_unit_t=13_0_split <- c_t=13
I1223 00:14:23.590312 25375 net.cpp:380] c_t=13_encode1_unit_t=13_0_split -> c_t=13_encode1_unit_t=13_0_split_0
I1223 00:14:23.590333 25375 net.cpp:380] c_t=13_encode1_unit_t=13_0_split -> c_t=13_encode1_unit_t=13_0_split_1
I1223 00:14:23.590339 25375 net.cpp:380] c_t=13_encode1_unit_t=13_0_split -> c_t=13_encode1_unit_t=13_0_split_2
I1223 00:14:23.590344 25375 net.cpp:380] c_t=13_encode1_unit_t=13_0_split -> c_t=13_encode1_unit_t=13_0_split_3
I1223 00:14:23.590412 25375 net.cpp:122] Setting up c_t=13_encode1_unit_t=13_0_split
I1223 00:14:23.590420 25375 net.cpp:129] Top shape: 1 1 32 32 32 (32768)
I1223 00:14:23.590423 25375 net.cpp:129] Top shape: 1 1 32 32 32 (32768)
I1223 00:14:23.590440 25375 net.cpp:129] Top shape: 1 1 32 32 32 (32768)
I1223 00:14:23.590442 25375 net.cpp:129] Top shape: 1 1 32 32 32 (32768)
I1223 00:14:23.590445 25375 net.cpp:137] Memory required for data: 60227840
I1223 00:14:23.590463 25375 layer_factory.hpp:77] Creating layer h_t=13_encode1_unit_t=13_1_split
I1223 00:14:23.590467 25375 net.cpp:84] Creating Layer h_t=13_encode1_unit_t=13_1_split
I1223 00:14:23.590471 25375 net.cpp:406] h_t=13_encode1_unit_t=13_1_split <- h_t=13
I1223 00:14:23.590488 25375 net.cpp:380] h_t=13_encode1_unit_t=13_1_split -> h_t=13_encode1_unit_t=13_1_split_0
I1223 00:14:23.590495 25375 net.cpp:380] h_t=13_encode1_unit_t=13_1_split -> h_t=13_encode1_unit_t=13_1_split_1
I1223 00:14:23.590528 25375 net.cpp:122] Setting up h_t=13_encode1_unit_t=13_1_split
I1223 00:14:23.590533 25375 net.cpp:129] Top shape: 1 1 32 32 32 (32768)
I1223 00:14:23.590538 25375 net.cpp:129] Top shape: 1 1 32 32 32 (32768)
I1223 00:14:23.590540 25375 net.cpp:137] Memory required for data: 60489984
I1223 00:14:23.590555 25375 layer_factory.hpp:77] Creating layer encode1_h_conted_t=13
I1223 00:14:23.590561 25375 net.cpp:84] Creating Layer encode1_h_conted_t=13
I1223 00:14:23.590580 25375 net.cpp:406] encode1_h_conted_t=13 <- h_t=13_encode1_unit_t=13_1_split_0
I1223 00:14:23.590584 25375 net.cpp:406] encode1_h_conted_t=13 <- cont_t=14_encode1_cont_slice_13_split_0
I1223 00:14:23.590602 25375 net.cpp:380] encode1_h_conted_t=13 -> h_conted_t=13
I1223 00:14:23.590687 25375 net.cpp:122] Setting up encode1_h_conted_t=13
I1223 00:14:23.590693 25375 net.cpp:129] Top shape: 1 1 32 32 32 (32768)
I1223 00:14:23.590697 25375 net.cpp:137] Memory required for data: 60621056
I1223 00:14:23.590699 25375 layer_factory.hpp:77] Creating layer encode1_hidden->transform->13
I1223 00:14:23.590720 25375 net.cpp:84] Creating Layer encode1_hidden->transform->13
I1223 00:14:23.590724 25375 net.cpp:406] encode1_hidden->transform->13 <- h_conted_t=13
I1223 00:14:23.590731 25375 net.cpp:380] encode1_hidden->transform->13 -> hidden->transform->13
I1223 00:14:23.591264 25375 net.cpp:122] Setting up encode1_hidden->transform->13
I1223 00:14:23.591270 25375 net.cpp:129] Top shape: 1 1 128 32 32 (131072)
I1223 00:14:23.591274 25375 net.cpp:137] Memory required for data: 61145344
I1223 00:14:23.591277 25375 net.cpp:465] Sharing parameters 'h->transform' owned by layer 'encode1_hidden->transform->0', param index 0
I1223 00:14:23.591281 25375 net.cpp:465] Sharing parameters 'h->transform_bias' owned by layer 'encode1_hidden->transform->0', param index 1
I1223 00:14:23.591284 25375 layer_factory.hpp:77] Creating layer encode1_hadamard->input_t=13
I1223 00:14:23.591289 25375 net.cpp:84] Creating Layer encode1_hadamard->input_t=13
I1223 00:14:23.591292 25375 net.cpp:406] encode1_hadamard->input_t=13 <- c_t=13_encode1_unit_t=13_0_split_0
I1223 00:14:23.591297 25375 net.cpp:380] encode1_hadamard->input_t=13 -> hadamard_in_t=14
I1223 00:14:23.591385 25375 net.cpp:122] Setting up encode1_hadamard->input_t=13
I1223 00:14:23.591392 25375 net.cpp:129] Top shape: 1 1 32 32 32 (32768)
I1223 00:14:23.591395 25375 net.cpp:137] Memory required for data: 61276416
I1223 00:14:23.591398 25375 net.cpp:465] Sharing parameters 'hadamard.input' owned by layer 'encode1_hadamard->input_t=0', param index 0
I1223 00:14:23.591403 25375 layer_factory.hpp:77] Creating layer encode1_hadamard->forget_t=13
I1223 00:14:23.591408 25375 net.cpp:84] Creating Layer encode1_hadamard->forget_t=13
I1223 00:14:23.591411 25375 net.cpp:406] encode1_hadamard->forget_t=13 <- c_t=13_encode1_unit_t=13_0_split_1
I1223 00:14:23.591416 25375 net.cpp:380] encode1_hadamard->forget_t=13 -> hadamard_fog_t=14
I1223 00:14:23.591518 25375 net.cpp:122] Setting up encode1_hadamard->forget_t=13
I1223 00:14:23.591526 25375 net.cpp:129] Top shape: 1 1 32 32 32 (32768)
I1223 00:14:23.591528 25375 net.cpp:137] Memory required for data: 61407488
I1223 00:14:23.591532 25375 net.cpp:465] Sharing parameters 'hadamard.forget' owned by layer 'encode1_hadamard->forget_t=0', param index 0
I1223 00:14:23.591536 25375 layer_factory.hpp:77] Creating layer encode1_hadamard->output_t=13
I1223 00:14:23.591554 25375 net.cpp:84] Creating Layer encode1_hadamard->output_t=13
I1223 00:14:23.591557 25375 net.cpp:406] encode1_hadamard->output_t=13 <- c_t=13_encode1_unit_t=13_0_split_2
I1223 00:14:23.591563 25375 net.cpp:380] encode1_hadamard->output_t=13 -> hadamard_out_t=14
I1223 00:14:23.591670 25375 net.cpp:122] Setting up encode1_hadamard->output_t=13
I1223 00:14:23.591678 25375 net.cpp:129] Top shape: 1 1 32 32 32 (32768)
I1223 00:14:23.591681 25375 net.cpp:137] Memory required for data: 61538560
I1223 00:14:23.591684 25375 net.cpp:465] Sharing parameters 'hadamard.output' owned by layer 'encode1_hadamard->output_t=0', param index 0
I1223 00:14:23.591687 25375 layer_factory.hpp:77] Creating layer encode1_hadamard_gat_t=14
I1223 00:14:23.591706 25375 net.cpp:84] Creating Layer encode1_hadamard_gat_t=14
I1223 00:14:23.591711 25375 net.cpp:380] encode1_hadamard_gat_t=14 -> hadamard_gat_t=14
I1223 00:14:23.591773 25375 net.cpp:122] Setting up encode1_hadamard_gat_t=14
I1223 00:14:23.591780 25375 net.cpp:129] Top shape: 1 1 32 32 32 (32768)
I1223 00:14:23.591784 25375 net.cpp:137] Memory required for data: 61669632
I1223 00:14:23.591786 25375 layer_factory.hpp:77] Creating layer encode1_concat_hadamard_t=14
I1223 00:14:23.591791 25375 net.cpp:84] Creating Layer encode1_concat_hadamard_t=14
I1223 00:14:23.591809 25375 net.cpp:406] encode1_concat_hadamard_t=14 <- hadamard_in_t=14
I1223 00:14:23.591812 25375 net.cpp:406] encode1_concat_hadamard_t=14 <- hadamard_fog_t=14
I1223 00:14:23.591816 25375 net.cpp:406] encode1_concat_hadamard_t=14 <- hadamard_out_t=14
I1223 00:14:23.591820 25375 net.cpp:406] encode1_concat_hadamard_t=14 <- hadamard_gat_t=14
I1223 00:14:23.591826 25375 net.cpp:380] encode1_concat_hadamard_t=14 -> hadamard_t=14
I1223 00:14:23.591864 25375 net.cpp:122] Setting up encode1_concat_hadamard_t=14
I1223 00:14:23.591871 25375 net.cpp:129] Top shape: 1 1 128 32 32 (131072)
I1223 00:14:23.591873 25375 net.cpp:137] Memory required for data: 62193920
I1223 00:14:23.591876 25375 layer_factory.hpp:77] Creating layer encode1_gate_input_14
I1223 00:14:23.591881 25375 net.cpp:84] Creating Layer encode1_gate_input_14
I1223 00:14:23.591898 25375 net.cpp:406] encode1_gate_input_14 <- hidden->transform->13
I1223 00:14:23.591902 25375 net.cpp:406] encode1_gate_input_14 <- x->transform->t=14
I1223 00:14:23.591907 25375 net.cpp:406] encode1_gate_input_14 <- hadamard_t=14
I1223 00:14:23.591928 25375 net.cpp:380] encode1_gate_input_14 -> gate_input_14
I1223 00:14:23.591948 25375 net.cpp:122] Setting up encode1_gate_input_14
I1223 00:14:23.591956 25375 net.cpp:129] Top shape: 1 1 128 32 32 (131072)
I1223 00:14:23.591959 25375 net.cpp:137] Memory required for data: 62718208
I1223 00:14:23.591962 25375 layer_factory.hpp:77] Creating layer encode1_unit_t=14
I1223 00:14:23.591966 25375 net.cpp:84] Creating Layer encode1_unit_t=14
I1223 00:14:23.591969 25375 net.cpp:406] encode1_unit_t=14 <- c_t=13_encode1_unit_t=13_0_split_3
I1223 00:14:23.591974 25375 net.cpp:406] encode1_unit_t=14 <- gate_input_14
I1223 00:14:23.591977 25375 net.cpp:406] encode1_unit_t=14 <- cont_t=14_encode1_cont_slice_13_split_1
I1223 00:14:23.591982 25375 net.cpp:380] encode1_unit_t=14 -> c_t=14
I1223 00:14:23.592001 25375 net.cpp:380] encode1_unit_t=14 -> h_t=14
I1223 00:14:23.592047 25375 net.cpp:122] Setting up encode1_unit_t=14
I1223 00:14:23.592056 25375 net.cpp:129] Top shape: 1 1 32 32 32 (32768)
I1223 00:14:23.592058 25375 net.cpp:129] Top shape: 1 1 32 32 32 (32768)
I1223 00:14:23.592061 25375 net.cpp:137] Memory required for data: 62980352
I1223 00:14:23.592064 25375 layer_factory.hpp:77] Creating layer c_t=14_encode1_unit_t=14_0_split
I1223 00:14:23.592082 25375 net.cpp:84] Creating Layer c_t=14_encode1_unit_t=14_0_split
I1223 00:14:23.592085 25375 net.cpp:406] c_t=14_encode1_unit_t=14_0_split <- c_t=14
I1223 00:14:23.592089 25375 net.cpp:380] c_t=14_encode1_unit_t=14_0_split -> c_t=14_encode1_unit_t=14_0_split_0
I1223 00:14:23.592097 25375 net.cpp:380] c_t=14_encode1_unit_t=14_0_split -> c_t=14_encode1_unit_t=14_0_split_1
I1223 00:14:23.592104 25375 net.cpp:380] c_t=14_encode1_unit_t=14_0_split -> c_t=14_encode1_unit_t=14_0_split_2
I1223 00:14:23.592110 25375 net.cpp:380] c_t=14_encode1_unit_t=14_0_split -> c_t=14_encode1_unit_t=14_0_split_3
I1223 00:14:23.592182 25375 net.cpp:122] Setting up c_t=14_encode1_unit_t=14_0_split
I1223 00:14:23.592188 25375 net.cpp:129] Top shape: 1 1 32 32 32 (32768)
I1223 00:14:23.592192 25375 net.cpp:129] Top shape: 1 1 32 32 32 (32768)
I1223 00:14:23.592196 25375 net.cpp:129] Top shape: 1 1 32 32 32 (32768)
I1223 00:14:23.592200 25375 net.cpp:129] Top shape: 1 1 32 32 32 (32768)
I1223 00:14:23.592202 25375 net.cpp:137] Memory required for data: 63504640
I1223 00:14:23.592206 25375 layer_factory.hpp:77] Creating layer h_t=14_encode1_unit_t=14_1_split
I1223 00:14:23.592211 25375 net.cpp:84] Creating Layer h_t=14_encode1_unit_t=14_1_split
I1223 00:14:23.592216 25375 net.cpp:406] h_t=14_encode1_unit_t=14_1_split <- h_t=14
I1223 00:14:23.592221 25375 net.cpp:380] h_t=14_encode1_unit_t=14_1_split -> h_t=14_encode1_unit_t=14_1_split_0
I1223 00:14:23.592239 25375 net.cpp:380] h_t=14_encode1_unit_t=14_1_split -> h_t=14_encode1_unit_t=14_1_split_1
I1223 00:14:23.592272 25375 net.cpp:122] Setting up h_t=14_encode1_unit_t=14_1_split
I1223 00:14:23.592279 25375 net.cpp:129] Top shape: 1 1 32 32 32 (32768)
I1223 00:14:23.592283 25375 net.cpp:129] Top shape: 1 1 32 32 32 (32768)
I1223 00:14:23.592285 25375 net.cpp:137] Memory required for data: 63766784
I1223 00:14:23.592288 25375 layer_factory.hpp:77] Creating layer encode1_h_conted_t=14
I1223 00:14:23.592293 25375 net.cpp:84] Creating Layer encode1_h_conted_t=14
I1223 00:14:23.592296 25375 net.cpp:406] encode1_h_conted_t=14 <- h_t=14_encode1_unit_t=14_1_split_0
I1223 00:14:23.592300 25375 net.cpp:406] encode1_h_conted_t=14 <- cont_t=15_encode1_cont_slice_14_split_0
I1223 00:14:23.592320 25375 net.cpp:380] encode1_h_conted_t=14 -> h_conted_t=14
I1223 00:14:23.592408 25375 net.cpp:122] Setting up encode1_h_conted_t=14
I1223 00:14:23.592417 25375 net.cpp:129] Top shape: 1 1 32 32 32 (32768)
I1223 00:14:23.592420 25375 net.cpp:137] Memory required for data: 63897856
I1223 00:14:23.592423 25375 layer_factory.hpp:77] Creating layer encode1_hidden->transform->14
I1223 00:14:23.592432 25375 net.cpp:84] Creating Layer encode1_hidden->transform->14
I1223 00:14:23.592435 25375 net.cpp:406] encode1_hidden->transform->14 <- h_conted_t=14
I1223 00:14:23.592442 25375 net.cpp:380] encode1_hidden->transform->14 -> hidden->transform->14
I1223 00:14:23.592932 25375 net.cpp:122] Setting up encode1_hidden->transform->14
I1223 00:14:23.592939 25375 net.cpp:129] Top shape: 1 1 128 32 32 (131072)
I1223 00:14:23.592942 25375 net.cpp:137] Memory required for data: 64422144
I1223 00:14:23.592947 25375 net.cpp:465] Sharing parameters 'h->transform' owned by layer 'encode1_hidden->transform->0', param index 0
I1223 00:14:23.592950 25375 net.cpp:465] Sharing parameters 'h->transform_bias' owned by layer 'encode1_hidden->transform->0', param index 1
I1223 00:14:23.592953 25375 layer_factory.hpp:77] Creating layer encode1_hadamard->input_t=14
I1223 00:14:23.592958 25375 net.cpp:84] Creating Layer encode1_hadamard->input_t=14
I1223 00:14:23.592962 25375 net.cpp:406] encode1_hadamard->input_t=14 <- c_t=14_encode1_unit_t=14_0_split_0
I1223 00:14:23.592969 25375 net.cpp:380] encode1_hadamard->input_t=14 -> hadamard_in_t=15
I1223 00:14:23.593075 25375 net.cpp:122] Setting up encode1_hadamard->input_t=14
I1223 00:14:23.593083 25375 net.cpp:129] Top shape: 1 1 32 32 32 (32768)
I1223 00:14:23.593086 25375 net.cpp:137] Memory required for data: 64553216
I1223 00:14:23.593089 25375 net.cpp:465] Sharing parameters 'hadamard.input' owned by layer 'encode1_hadamard->input_t=0', param index 0
I1223 00:14:23.593092 25375 layer_factory.hpp:77] Creating layer encode1_hadamard->forget_t=14
I1223 00:14:23.593112 25375 net.cpp:84] Creating Layer encode1_hadamard->forget_t=14
I1223 00:14:23.593116 25375 net.cpp:406] encode1_hadamard->forget_t=14 <- c_t=14_encode1_unit_t=14_0_split_1
I1223 00:14:23.593122 25375 net.cpp:380] encode1_hadamard->forget_t=14 -> hadamard_fog_t=15
I1223 00:14:23.593224 25375 net.cpp:122] Setting up encode1_hadamard->forget_t=14
I1223 00:14:23.593230 25375 net.cpp:129] Top shape: 1 1 32 32 32 (32768)
I1223 00:14:23.593232 25375 net.cpp:137] Memory required for data: 64684288
I1223 00:14:23.593235 25375 net.cpp:465] Sharing parameters 'hadamard.forget' owned by layer 'encode1_hadamard->forget_t=0', param index 0
I1223 00:14:23.593238 25375 layer_factory.hpp:77] Creating layer encode1_hadamard->output_t=14
I1223 00:14:23.593258 25375 net.cpp:84] Creating Layer encode1_hadamard->output_t=14
I1223 00:14:23.593262 25375 net.cpp:406] encode1_hadamard->output_t=14 <- c_t=14_encode1_unit_t=14_0_split_2
I1223 00:14:23.593281 25375 net.cpp:380] encode1_hadamard->output_t=14 -> hadamard_out_t=15
I1223 00:14:23.593374 25375 net.cpp:122] Setting up encode1_hadamard->output_t=14
I1223 00:14:23.593381 25375 net.cpp:129] Top shape: 1 1 32 32 32 (32768)
I1223 00:14:23.593384 25375 net.cpp:137] Memory required for data: 64815360
I1223 00:14:23.593389 25375 net.cpp:465] Sharing parameters 'hadamard.output' owned by layer 'encode1_hadamard->output_t=0', param index 0
I1223 00:14:23.593390 25375 layer_factory.hpp:77] Creating layer encode1_hadamard_gat_t=15
I1223 00:14:23.593410 25375 net.cpp:84] Creating Layer encode1_hadamard_gat_t=15
I1223 00:14:23.593415 25375 net.cpp:380] encode1_hadamard_gat_t=15 -> hadamard_gat_t=15
I1223 00:14:23.593484 25375 net.cpp:122] Setting up encode1_hadamard_gat_t=15
I1223 00:14:23.593492 25375 net.cpp:129] Top shape: 1 1 32 32 32 (32768)
I1223 00:14:23.593508 25375 net.cpp:137] Memory required for data: 64946432
I1223 00:14:23.593510 25375 layer_factory.hpp:77] Creating layer encode1_concat_hadamard_t=15
I1223 00:14:23.593528 25375 net.cpp:84] Creating Layer encode1_concat_hadamard_t=15
I1223 00:14:23.593533 25375 net.cpp:406] encode1_concat_hadamard_t=15 <- hadamard_in_t=15
I1223 00:14:23.593536 25375 net.cpp:406] encode1_concat_hadamard_t=15 <- hadamard_fog_t=15
I1223 00:14:23.593554 25375 net.cpp:406] encode1_concat_hadamard_t=15 <- hadamard_out_t=15
I1223 00:14:23.593557 25375 net.cpp:406] encode1_concat_hadamard_t=15 <- hadamard_gat_t=15
I1223 00:14:23.593561 25375 net.cpp:380] encode1_concat_hadamard_t=15 -> hadamard_t=15
I1223 00:14:23.593586 25375 net.cpp:122] Setting up encode1_concat_hadamard_t=15
I1223 00:14:23.593592 25375 net.cpp:129] Top shape: 1 1 128 32 32 (131072)
I1223 00:14:23.593595 25375 net.cpp:137] Memory required for data: 65470720
I1223 00:14:23.593598 25375 layer_factory.hpp:77] Creating layer encode1_gate_input_15
I1223 00:14:23.593603 25375 net.cpp:84] Creating Layer encode1_gate_input_15
I1223 00:14:23.593606 25375 net.cpp:406] encode1_gate_input_15 <- hidden->transform->14
I1223 00:14:23.593611 25375 net.cpp:406] encode1_gate_input_15 <- x->transform->t=15
I1223 00:14:23.593614 25375 net.cpp:406] encode1_gate_input_15 <- hadamard_t=15
I1223 00:14:23.593636 25375 net.cpp:380] encode1_gate_input_15 -> gate_input_15
I1223 00:14:23.593657 25375 net.cpp:122] Setting up encode1_gate_input_15
I1223 00:14:23.593662 25375 net.cpp:129] Top shape: 1 1 128 32 32 (131072)
I1223 00:14:23.593665 25375 net.cpp:137] Memory required for data: 65995008
I1223 00:14:23.593667 25375 layer_factory.hpp:77] Creating layer encode1_unit_t=15
I1223 00:14:23.593674 25375 net.cpp:84] Creating Layer encode1_unit_t=15
I1223 00:14:23.593678 25375 net.cpp:406] encode1_unit_t=15 <- c_t=14_encode1_unit_t=14_0_split_3
I1223 00:14:23.593683 25375 net.cpp:406] encode1_unit_t=15 <- gate_input_15
I1223 00:14:23.593686 25375 net.cpp:406] encode1_unit_t=15 <- cont_t=15_encode1_cont_slice_14_split_1
I1223 00:14:23.593691 25375 net.cpp:380] encode1_unit_t=15 -> c_t=15
I1223 00:14:23.593698 25375 net.cpp:380] encode1_unit_t=15 -> h_t=15
I1223 00:14:23.593756 25375 net.cpp:122] Setting up encode1_unit_t=15
I1223 00:14:23.593763 25375 net.cpp:129] Top shape: 1 1 32 32 32 (32768)
I1223 00:14:23.593767 25375 net.cpp:129] Top shape: 1 1 32 32 32 (32768)
I1223 00:14:23.593783 25375 net.cpp:137] Memory required for data: 66257152
I1223 00:14:23.593786 25375 layer_factory.hpp:77] Creating layer c_t=15_encode1_unit_t=15_0_split
I1223 00:14:23.593791 25375 net.cpp:84] Creating Layer c_t=15_encode1_unit_t=15_0_split
I1223 00:14:23.593808 25375 net.cpp:406] c_t=15_encode1_unit_t=15_0_split <- c_t=15
I1223 00:14:23.593814 25375 net.cpp:380] c_t=15_encode1_unit_t=15_0_split -> c_t=15_encode1_unit_t=15_0_split_0
I1223 00:14:23.593822 25375 net.cpp:380] c_t=15_encode1_unit_t=15_0_split -> c_t=15_encode1_unit_t=15_0_split_1
I1223 00:14:23.593829 25375 net.cpp:380] c_t=15_encode1_unit_t=15_0_split -> c_t=15_encode1_unit_t=15_0_split_2
I1223 00:14:23.593837 25375 net.cpp:380] c_t=15_encode1_unit_t=15_0_split -> c_t=15_encode1_unit_t=15_0_split_3
I1223 00:14:23.593892 25375 net.cpp:122] Setting up c_t=15_encode1_unit_t=15_0_split
I1223 00:14:23.593899 25375 net.cpp:129] Top shape: 1 1 32 32 32 (32768)
I1223 00:14:23.593902 25375 net.cpp:129] Top shape: 1 1 32 32 32 (32768)
I1223 00:14:23.593907 25375 net.cpp:129] Top shape: 1 1 32 32 32 (32768)
I1223 00:14:23.593910 25375 net.cpp:129] Top shape: 1 1 32 32 32 (32768)
I1223 00:14:23.593914 25375 net.cpp:137] Memory required for data: 66781440
I1223 00:14:23.593915 25375 layer_factory.hpp:77] Creating layer h_t=15_encode1_unit_t=15_1_split
I1223 00:14:23.593920 25375 net.cpp:84] Creating Layer h_t=15_encode1_unit_t=15_1_split
I1223 00:14:23.593924 25375 net.cpp:406] h_t=15_encode1_unit_t=15_1_split <- h_t=15
I1223 00:14:23.593928 25375 net.cpp:380] h_t=15_encode1_unit_t=15_1_split -> h_t=15_encode1_unit_t=15_1_split_0
I1223 00:14:23.593935 25375 net.cpp:380] h_t=15_encode1_unit_t=15_1_split -> h_t=15_encode1_unit_t=15_1_split_1
I1223 00:14:23.593967 25375 net.cpp:122] Setting up h_t=15_encode1_unit_t=15_1_split
I1223 00:14:23.593974 25375 net.cpp:129] Top shape: 1 1 32 32 32 (32768)
I1223 00:14:23.593978 25375 net.cpp:129] Top shape: 1 1 32 32 32 (32768)
I1223 00:14:23.593981 25375 net.cpp:137] Memory required for data: 67043584
I1223 00:14:23.593983 25375 layer_factory.hpp:77] Creating layer encode1_h_conted_t=15
I1223 00:14:23.593989 25375 net.cpp:84] Creating Layer encode1_h_conted_t=15
I1223 00:14:23.593992 25375 net.cpp:406] encode1_h_conted_t=15 <- h_t=15_encode1_unit_t=15_1_split_0
I1223 00:14:23.593997 25375 net.cpp:406] encode1_h_conted_t=15 <- cont_t=16_encode1_cont_slice_15_split_0
I1223 00:14:23.594002 25375 net.cpp:380] encode1_h_conted_t=15 -> h_conted_t=15
I1223 00:14:23.594075 25375 net.cpp:122] Setting up encode1_h_conted_t=15
I1223 00:14:23.594084 25375 net.cpp:129] Top shape: 1 1 32 32 32 (32768)
I1223 00:14:23.594085 25375 net.cpp:137] Memory required for data: 67174656
I1223 00:14:23.594089 25375 layer_factory.hpp:77] Creating layer encode1_hidden->transform->15
I1223 00:14:23.594097 25375 net.cpp:84] Creating Layer encode1_hidden->transform->15
I1223 00:14:23.594102 25375 net.cpp:406] encode1_hidden->transform->15 <- h_conted_t=15
I1223 00:14:23.594108 25375 net.cpp:380] encode1_hidden->transform->15 -> hidden->transform->15
I1223 00:14:23.594590 25375 net.cpp:122] Setting up encode1_hidden->transform->15
I1223 00:14:23.594600 25375 net.cpp:129] Top shape: 1 1 128 32 32 (131072)
I1223 00:14:23.594604 25375 net.cpp:137] Memory required for data: 67698944
I1223 00:14:23.594607 25375 net.cpp:465] Sharing parameters 'h->transform' owned by layer 'encode1_hidden->transform->0', param index 0
I1223 00:14:23.594611 25375 net.cpp:465] Sharing parameters 'h->transform_bias' owned by layer 'encode1_hidden->transform->0', param index 1
I1223 00:14:23.594614 25375 layer_factory.hpp:77] Creating layer encode1_hadamard->input_t=15
I1223 00:14:23.594621 25375 net.cpp:84] Creating Layer encode1_hadamard->input_t=15
I1223 00:14:23.594625 25375 net.cpp:406] encode1_hadamard->input_t=15 <- c_t=15_encode1_unit_t=15_0_split_0
I1223 00:14:23.594631 25375 net.cpp:380] encode1_hadamard->input_t=15 -> hadamard_in_t=16
I1223 00:14:23.594728 25375 net.cpp:122] Setting up encode1_hadamard->input_t=15
I1223 00:14:23.594738 25375 net.cpp:129] Top shape: 1 1 32 32 32 (32768)
I1223 00:14:23.594740 25375 net.cpp:137] Memory required for data: 67830016
I1223 00:14:23.594744 25375 net.cpp:465] Sharing parameters 'hadamard.input' owned by layer 'encode1_hadamard->input_t=0', param index 0
I1223 00:14:23.594748 25375 layer_factory.hpp:77] Creating layer encode1_hadamard->forget_t=15
I1223 00:14:23.594753 25375 net.cpp:84] Creating Layer encode1_hadamard->forget_t=15
I1223 00:14:23.594758 25375 net.cpp:406] encode1_hadamard->forget_t=15 <- c_t=15_encode1_unit_t=15_0_split_1
I1223 00:14:23.594763 25375 net.cpp:380] encode1_hadamard->forget_t=15 -> hadamard_fog_t=16
I1223 00:14:23.594859 25375 net.cpp:122] Setting up encode1_hadamard->forget_t=15
I1223 00:14:23.594867 25375 net.cpp:129] Top shape: 1 1 32 32 32 (32768)
I1223 00:14:23.594871 25375 net.cpp:137] Memory required for data: 67961088
I1223 00:14:23.594874 25375 net.cpp:465] Sharing parameters 'hadamard.forget' owned by layer 'encode1_hadamard->forget_t=0', param index 0
I1223 00:14:23.594878 25375 layer_factory.hpp:77] Creating layer encode1_hadamard->output_t=15
I1223 00:14:23.594882 25375 net.cpp:84] Creating Layer encode1_hadamard->output_t=15
I1223 00:14:23.594887 25375 net.cpp:406] encode1_hadamard->output_t=15 <- c_t=15_encode1_unit_t=15_0_split_2
I1223 00:14:23.594892 25375 net.cpp:380] encode1_hadamard->output_t=15 -> hadamard_out_t=16
I1223 00:14:23.594985 25375 net.cpp:122] Setting up encode1_hadamard->output_t=15
I1223 00:14:23.594995 25375 net.cpp:129] Top shape: 1 1 32 32 32 (32768)
I1223 00:14:23.594997 25375 net.cpp:137] Memory required for data: 68092160
I1223 00:14:23.595001 25375 net.cpp:465] Sharing parameters 'hadamard.output' owned by layer 'encode1_hadamard->output_t=0', param index 0
I1223 00:14:23.595005 25375 layer_factory.hpp:77] Creating layer encode1_hadamard_gat_t=16
I1223 00:14:23.595010 25375 net.cpp:84] Creating Layer encode1_hadamard_gat_t=16
I1223 00:14:23.595016 25375 net.cpp:380] encode1_hadamard_gat_t=16 -> hadamard_gat_t=16
I1223 00:14:23.595072 25375 net.cpp:122] Setting up encode1_hadamard_gat_t=16
I1223 00:14:23.595078 25375 net.cpp:129] Top shape: 1 1 32 32 32 (32768)
I1223 00:14:23.595082 25375 net.cpp:137] Memory required for data: 68223232
I1223 00:14:23.595084 25375 layer_factory.hpp:77] Creating layer encode1_concat_hadamard_t=16
I1223 00:14:23.595090 25375 net.cpp:84] Creating Layer encode1_concat_hadamard_t=16
I1223 00:14:23.595093 25375 net.cpp:406] encode1_concat_hadamard_t=16 <- hadamard_in_t=16
I1223 00:14:23.595098 25375 net.cpp:406] encode1_concat_hadamard_t=16 <- hadamard_fog_t=16
I1223 00:14:23.595101 25375 net.cpp:406] encode1_concat_hadamard_t=16 <- hadamard_out_t=16
I1223 00:14:23.595105 25375 net.cpp:406] encode1_concat_hadamard_t=16 <- hadamard_gat_t=16
I1223 00:14:23.595113 25375 net.cpp:380] encode1_concat_hadamard_t=16 -> hadamard_t=16
I1223 00:14:23.595137 25375 net.cpp:122] Setting up encode1_concat_hadamard_t=16
I1223 00:14:23.595144 25375 net.cpp:129] Top shape: 1 1 128 32 32 (131072)
I1223 00:14:23.595147 25375 net.cpp:137] Memory required for data: 68747520
I1223 00:14:23.595150 25375 layer_factory.hpp:77] Creating layer encode1_gate_input_16
I1223 00:14:23.595155 25375 net.cpp:84] Creating Layer encode1_gate_input_16
I1223 00:14:23.595158 25375 net.cpp:406] encode1_gate_input_16 <- hidden->transform->15
I1223 00:14:23.595163 25375 net.cpp:406] encode1_gate_input_16 <- x->transform->t=16
I1223 00:14:23.595167 25375 net.cpp:406] encode1_gate_input_16 <- hadamard_t=16
I1223 00:14:23.595173 25375 net.cpp:380] encode1_gate_input_16 -> gate_input_16
I1223 00:14:23.595197 25375 net.cpp:122] Setting up encode1_gate_input_16
I1223 00:14:23.595203 25375 net.cpp:129] Top shape: 1 1 128 32 32 (131072)
I1223 00:14:23.595206 25375 net.cpp:137] Memory required for data: 69271808
I1223 00:14:23.595209 25375 layer_factory.hpp:77] Creating layer encode1_unit_t=16
I1223 00:14:23.595216 25375 net.cpp:84] Creating Layer encode1_unit_t=16
I1223 00:14:23.595219 25375 net.cpp:406] encode1_unit_t=16 <- c_t=15_encode1_unit_t=15_0_split_3
I1223 00:14:23.595224 25375 net.cpp:406] encode1_unit_t=16 <- gate_input_16
I1223 00:14:23.595228 25375 net.cpp:406] encode1_unit_t=16 <- cont_t=16_encode1_cont_slice_15_split_1
I1223 00:14:23.595232 25375 net.cpp:380] encode1_unit_t=16 -> c_t=16
I1223 00:14:23.595239 25375 net.cpp:380] encode1_unit_t=16 -> h_t=16
I1223 00:14:23.595288 25375 net.cpp:122] Setting up encode1_unit_t=16
I1223 00:14:23.595294 25375 net.cpp:129] Top shape: 1 1 32 32 32 (32768)
I1223 00:14:23.595299 25375 net.cpp:129] Top shape: 1 1 32 32 32 (32768)
I1223 00:14:23.595300 25375 net.cpp:137] Memory required for data: 69533952
I1223 00:14:23.595304 25375 layer_factory.hpp:77] Creating layer h_t=16_encode1_unit_t=16_1_split
I1223 00:14:23.595309 25375 net.cpp:84] Creating Layer h_t=16_encode1_unit_t=16_1_split
I1223 00:14:23.595311 25375 net.cpp:406] h_t=16_encode1_unit_t=16_1_split <- h_t=16
I1223 00:14:23.595317 25375 net.cpp:380] h_t=16_encode1_unit_t=16_1_split -> h_t=16_encode1_unit_t=16_1_split_0
I1223 00:14:23.595324 25375 net.cpp:380] h_t=16_encode1_unit_t=16_1_split -> h_t=16_encode1_unit_t=16_1_split_1
I1223 00:14:23.595365 25375 net.cpp:122] Setting up h_t=16_encode1_unit_t=16_1_split
I1223 00:14:23.595371 25375 net.cpp:129] Top shape: 1 1 32 32 32 (32768)
I1223 00:14:23.595376 25375 net.cpp:129] Top shape: 1 1 32 32 32 (32768)
I1223 00:14:23.595378 25375 net.cpp:137] Memory required for data: 69796096
I1223 00:14:23.595381 25375 layer_factory.hpp:77] Creating layer encode1_h_concat
I1223 00:14:23.595388 25375 net.cpp:84] Creating Layer encode1_h_concat
I1223 00:14:23.595391 25375 net.cpp:406] encode1_h_concat <- h_t=1_encode1_unit_t=1_1_split_1
I1223 00:14:23.595396 25375 net.cpp:406] encode1_h_concat <- h_t=2_encode1_unit_t=2_1_split_1
…
I1223 00:14:23.721091 25375 recurrent_layer.cpp:150] Adding parameter 4: h->transform_bias
I1223 00:14:23.721093 25375 recurrent_layer.cpp:150] Adding parameter 5: hadamard.input
I1223 00:14:23.721096 25375 recurrent_layer.cpp:150] Adding parameter 6: hadamard.forget
I1223 00:14:23.721098 25375 recurrent_layer.cpp:150] Adding parameter 7: hadamard.output
I1223 00:14:23.721101 25375 recurrent_layer.cpp:150] Adding parameter 83: 0
I1223 00:14:23.721103 25375 recurrent_layer.cpp:150] Adding parameter 84: 0
I1223 00:14:23.721846 25375 net.cpp:122] Setting up encode4
I1223 00:14:23.721856 25375 net.cpp:129] Top shape: 16 1 32 32 32 (524288)
I1223 00:14:23.721861 25375 net.cpp:129] Top shape: 1 1 32 32 32 (32768)
I1223 00:14:23.721865 25375 net.cpp:129] Top shape: 1 1 32 32 32 (32768)
I1223 00:14:23.721868 25375 net.cpp:137] Memory required for data: 4289331584
I1223 00:14:23.721880 25375 layer_factory.hpp:77] Creating layer reshape_encode1
I1223 00:14:23.721889 25375 net.cpp:84] Creating Layer reshape_encode1
I1223 00:14:23.721891 25375 net.cpp:406] reshape_encode1 <- encode1
I1223 00:14:23.721897 25375 net.cpp:380] reshape_encode1 -> reshape_encode1
I1223 00:14:23.721959 25375 net.cpp:122] Setting up reshape_encode1
I1223 00:14:23.721966 25375 net.cpp:129] Top shape: 16 32 32 32 (524288)
I1223 00:14:23.721969 25375 net.cpp:137] Memory required for data: 4291428736
I1223 00:14:23.721971 25375 layer_factory.hpp:77] Creating layer reshape_encode2
I1223 00:14:23.721976 25375 net.cpp:84] Creating Layer reshape_encode2
I1223 00:14:23.721979 25375 net.cpp:406] reshape_encode2 <- encode2
I1223 00:14:23.721984 25375 net.cpp:380] reshape_encode2 -> reshape_encode2
I1223 00:14:23.722012 25375 net.cpp:122] Setting up reshape_encode2
I1223 00:14:23.722034 25375 net.cpp:129] Top shape: 16 32 32 32 (524288)
I1223 00:14:23.722038 25375 net.cpp:137] Memory required for data: 4293525888
I1223 00:14:23.722054 25375 layer_factory.hpp:77] Creating layer reshape_encode3
I1223 00:14:23.722057 25375 net.cpp:84] Creating Layer reshape_encode3
I1223 00:14:23.722060 25375 net.cpp:406] reshape_encode3 <- encode3
I1223 00:14:23.722079 25375 net.cpp:380] reshape_encode3 -> reshape_encode3
I1223 00:14:23.722134 25375 net.cpp:122] Setting up reshape_encode3
I1223 00:14:23.722153 25375 net.cpp:129] Top shape: 16 32 32 32 (524288)
I1223 00:14:23.722157 25375 net.cpp:137] Memory required for data: 4295623040
I1223 00:14:23.722162 25375 layer_factory.hpp:77] Creating layer reshape_encode4
I1223 00:14:23.722182 25375 net.cpp:84] Creating Layer reshape_encode4
I1223 00:14:23.722185 25375 net.cpp:406] reshape_encode4 <- encode4
I1223 00:14:23.722190 25375 net.cpp:380] reshape_encode4 -> reshape_encode4
I1223 00:14:23.722247 25375 net.cpp:122] Setting up reshape_encode4
I1223 00:14:23.722254 25375 net.cpp:129] Top shape: 16 32 32 32 (524288)
I1223 00:14:23.722256 25375 net.cpp:137] Memory required for data: 4297720192
I1223 00:14:23.722261 25375 layer_factory.hpp:77] Creating layer concat_encode1234
I1223 00:14:23.722266 25375 net.cpp:84] Creating Layer concat_encode1234
I1223 00:14:23.722283 25375 net.cpp:406] concat_encode1234 <- reshape_encode1
I1223 00:14:23.722287 25375 net.cpp:406] concat_encode1234 <- reshape_encode2
I1223 00:14:23.722290 25375 net.cpp:406] concat_encode1234 <- reshape_encode3
I1223 00:14:23.722293 25375 net.cpp:406] concat_encode1234 <- reshape_encode4
I1223 00:14:23.722298 25375 net.cpp:380] concat_encode1234 -> concat_encode1234
I1223 00:14:23.722326 25375 net.cpp:122] Setting up concat_encode1234
I1223 00:14:23.722332 25375 net.cpp:129] Top shape: 16 128 32 32 (2097152)
I1223 00:14:23.722347 25375 net.cpp:137] Memory required for data: 4306108800
I1223 00:14:23.722350 25375 layer_factory.hpp:77] Creating layer conv7_
I1223 00:14:23.722370 25375 net.cpp:84] Creating Layer conv7_
I1223 00:14:23.722375 25375 net.cpp:406] conv7_ <- concat_encode1234
I1223 00:14:23.722394 25375 net.cpp:380] conv7_ -> conv7
I1223 00:14:23.722697 25375 net.cpp:122] Setting up conv7_
I1223 00:14:23.722703 25375 net.cpp:129] Top shape: 16 1 32 32 (16384)
I1223 00:14:23.722707 25375 net.cpp:137] Memory required for data: 4306174336
I1223 00:14:23.722712 25375 layer_factory.hpp:77] Creating layer conv7_interp
I1223 00:14:23.722717 25375 net.cpp:84] Creating Layer conv7_interp
I1223 00:14:23.722719 25375 net.cpp:406] conv7_interp <- conv7
I1223 00:14:23.722724 25375 net.cpp:380] conv7_interp -> conv7_interp
I1223 00:14:23.722765 25375 net.cpp:122] Setting up conv7_interp
I1223 00:14:23.722772 25375 net.cpp:129] Top shape: 16 1 256 256 (1048576)
I1223 00:14:23.722774 25375 net.cpp:137] Memory required for data: 4310368640
I1223 00:14:23.722777 25375 layer_factory.hpp:77] Creating layer loss
I1223 00:14:23.722784 25375 net.cpp:84] Creating Layer loss
I1223 00:14:23.722787 25375 net.cpp:406] loss <- conv7_interp
I1223 00:14:23.722791 25375 net.cpp:406] loss <- label
I1223 00:14:23.722795 25375 net.cpp:380] loss -> loss
…
